tabular_feature_extractor.pth (torch, 88569 bytes, 41 tensors)

dense1.weight f4 [256, 25]
00000000: 5a26 6ebe c3a8 59bd c458 29bd 13d6 74bd
00000010: c13d ca3d 9669 bf3d 086b 743e 00c8 d73d
00000020: 2077 4f3c 8ab1 babd 8d82 093e 1ed6 74be
00000030: 3e23 173e 87bf edbd 6442 fdbd 3b40 cc3c
00000040: 5ed3 a73d cf3c 853d 8bd5 fbbd d91a 2c3e
00000050: b90d 03be 08b8 debd 8399 4d3e 9c39 8bbd
00000060: d8f3 393e 708e a9bd 96fb 99bc 95cb 9f3b
00000070: dbd5 2cbe c73e 94bd b097 183d f665 30bc
00000080: 8ad5 2c3e 184e c1bd 1137 97bd 13e4 dfbc
00000090: 9785 50bd 1b63 be3d 6d79 cf3d d3af 2d3e
000000a0: b972 903d 9832 01bd aaea 073e 0a5d 613e
000000b0: 612e bebc 326a 87be 5242 8d3d da58 d13d
000000c0: 8e87 e6bc 5775 d7bd 7665 76be 45af 9bbb
000000d0: 3db8 383e f86d 993c 4bac 953d 25df 443e
000000e0: a53e 74be 9103 313c ef99 f1bd 7eea 2a3d
000000f0: 56a0 fbbd fee5 3a3e 59e0 ccbd d51b afbc
00000100: dc8c 063e c157 5a3c 9fed d33d 043d 26bd
00000110: 19a2 3c3e d38f 613c 4733 923d 4197 47bc
00000120: 592e bc3d fd92 b93d f844 4c3d 1d5c b03d
00000130: 7ca6 9fbd 1c7d d03d 7eb2 303e b2e4 f6bb
00000140: a2ff 053e 19eb 5cbe d879 623d 01c1 d4bd
00000150: 5303 d13d f33c 00be d25c 233d 344c 5dbe
00000160: eed9 433e f8b2 3cbd 95a9 55be 29b7 4abe
00000170: 1545 79be 69d0 223e 2e4d e3bd 359a c8bd
00000180: d4b1 ea3d 3a67 38bb ff24 13be 6af9 b23d
00000190: 3874 2b3e 955c 42be 0940 d33c 0b3a 4a3e
000001a0: 8894 533d 9cbd 10be 01fe 7b3e 3f04 a53d
000001b0: ea3b 5d3e 617b 0bbe 35fe 79bd 3f9c 1ebe
000001c0: 5e34 32be 2676 0cbe 9752 14bd 6769 46be
000001d0: b4d4 acbc d8a7 a1bb c1e8 69bd 168d 4bbe
000001e0: beed 0fbe 9368 9bbd 623f 1b3e 3ead 0fbe
000001f0: 0ab1 20bd 2c96 5cbe 1a5d 143e 3cbe 01be
00000200: 5c9f 5b3d 5026 753d a2f8 4ebe 34de b43d
00000210: 6d87 bcba 0711 22be 3d16 da3c 55e5 39be
00000220: e99f 4dbb 40bd a63d 6eb2 763d 9055 8ebd
00000230: 307e bf3d 804a a1ba 736c a23d 91e7 97bc
00000240: ae1e 833d 8fb8 bfbd 56d5 0a3e e62d 01bc
00000250: fb75 22bd dd9d 163d 6550 29bc c1cb 45be
00000260: fa30 15bd dadf ab3d eba0 39bd 7087 613e
00000270: 32a0 243e 97e6 afbd 36b3 49bd fdcd 39be
00000280: c086 0e3e 2d68 dabd 8dfc dfbd 0d41 c9bd
00000290: c56a a1bd 5f45 c83d c3b7 babd 00c7 b23d
000002a0: 8940 583c 5e58 ec3d 82bf bcbd df87 1dbe
000002b0: 34b6 d9bd 2d2d 7abd d900 183e 76d8 28be
000002c0: 9816 cf3d a739 d6bd 6736 873c 32d7 1fbe
000002d0: 2e17 883d 4c3f 413e 156f 00be b574 853c
000002e0: 30c1 12bd eeb3 88bd 5df0 9dbe 6085 2f3e
000002f0: a9a1 023e 8bd3 253e a096 713e 07a6 bfba
00000300: 5715 14bd c9e0 60bd 9e0e e8bc 377f 913d
00000310: f181 03be a504 22be fb33 0dbb 5db1 21be
00000320: 1496 c4bd a42c 20be f95e f33d 7cab 0dbe
00000330: 18e0 aebd 759f 64be caad c03d 126d 1c3e
00000340: b7b1 bebc b95a 3b3e 7b35 0e3e bdaf 0cbe
00000350: 023c c53b 1369 5dbe a31c 37be f8bd 21be
00000360: 72d6 cfbd e4d3 e73d 70a6 59bd 72e1 28bb
00000370: b7f4 923d b7b1 b0bd 97ea 5fbe 919d 183e
00000380: 1d74 ac3d 4a13 a7bd 0417 51be 4c20 c4bd
00000390: d561 583e 8a0c 593c 78d4 943d a885 213e
000003a0: d12e 34bc 870a 6e3d acbc b43d ab06 00bd
000003b0: 158d 63be bda1 d93c 9cde 01be fa81 ad3d
000003c0: 97a0 6e3e c06d 603e 0830 08ba 37ea f93b
000003d0: 9477 0f3e 2e00 3b3d 741d 863c ed04 05bc
000003e0: cbaa 0cbe 49df 153d 1a5d dcbd ddaf 31bc
000003f0: b3c3 01bd 3b8b 20be 8f34 12be f7e2 f83d
-0.23256817 -0.05313946 -0.04134442 -0.05977447 0.0987506 0.09346311 0.23868954 0.10536194
0.012662679 -0.09115894 0.13428707 -0.23909804 0.14759538 -0.116087966 -0.12366179 0.024932971
0.08194612 0.06505739 -0.122965895 0.16807117 -0.12798204 -0.10874945 0.20078091 -0.067980975
0.18159425 -0.08279121 -0.018796723 0.004876564 -0.16878454 -0.07238536 0.037254035 -0.010766497
0.16878334 -0.09438723 -0.0738355 -0.027330434 -0.05090865 0.092962466 0.10130582 0.16961603
0.070531316 -0.03154239 0.13273111 0.22008148 -0.023215475 -0.26448208 0.06897415 0.10222025
-0.02814081 -0.10520428 -0.24062142 -0.0047511184 0.18039031 0.018729195 0.07308253 0.19225748
-0.23852022 0.010804073 -0.11796939 0.041727535 -0.12286441 0.18251798 -0.100037284 -0.021375576
0.13139671 0.013326586 0.10348057 -0.040585533 0.1842121 0.0137672005 0.071386866 -0.012182058
0.091885276 0.09061239 0.04987046 0.08611319 -0.07795426 0.10180113 0.1725559 -0.007534587
0.13085797 -0.21574058 0.05529198 -0.10388375 0.10205712 -0.1252325 0.039883442 -0.216111
0.19126102 -0.046069115 -0.20865472 -0.19796433 -0.24342759 0.15899815 -0.11098705 -0.09795038
0.11459699 -0.00281377 -0.14369582 0.08738978 0.16743553 -0.1898063 0.02578737 0.19748704
0.051655322 -0.1413483 0.24608614 0.080574505 0.21604887 -0.13621284 -0.061033446 -0.1548929
-0.17402789 -0.13716945 -0.036211576 -0.19376145 -0.021097519 -0.0049333386 -0.057106737 -0.19878039
-0.14055535 -0.07588305 0.15160897 -0.1403093 -0.039231338 -0.21541661 0.1448864 -0.12670225
0.053618774 0.05985099 -0.20212033 0.088314444 -0.0014383622 -0.15826808 0.026621932 -0.1815389
-0.0031375831 0.08141565 0.060228758 -0.069499135 0.0935024 -0.0012305528 0.07930841 -0.018543037
0.06402336 -0.09361374 0.13557944 -0.007884478 -0.039663296 0.036771644 -0.010334109 -0.19316007
-0.03642366 0.08392306 -0.04531948 0.22024322 0.16076735 -0.085889034 -0.049243174 -0.18144985
0.1391859 -0.10664401 -0.10936842 -0.098268606 -0.07881693 0.097788565 -0.09117081 0.087293625
0.01319898 0.11540292 -0.09216215 -0.15383862 -0.106304556 -0.06107824 0.14844073 -0.16488823
0.10111731 -0.10460215 0.016505433 -0.15609434 0.06645046 0.18871802 -0.12542374 0.016291002
-0.03582877 -0.06674944 -0.30847445 0.17140722 0.12756981 0.16193978 0.23592615 -0.0014621624
-0.036153164 -0.05490187 -0.028327283 0.071043424 -0.12842537 -0.15822084 -0.0021545875 -0.15790315
-0.09598938 -0.15642029 0.11883349 -0.13834947 -0.08538836 -0.22326453 0.09408148 0.15275982
-0.0232781 0.18296327 0.13887589 -0.13738914 0.0060191164 -0.21622114 -0.17882018 -0.15795124
-0.10148324 0.11319712 -0.053137243 -0.0025769142 0.07175582 -0.086276464 -0.21866833 0.14903857
0.08420584 -0.08157976 -0.20418936 -0.09576473 0.2113107 0.013247618 0.07267088 0.15773642
-0.01099749 0.05811551 0.08825049 -0.03125636 -0.22221787 0.02656638 -0.12682575 0.08472057
0.23303448 0.21916866 -0.00051951455 0.0076267975 0.14010459 0.04565447 0.016371466 -0.00811885
-0.13737027 0.036589894 -0.10759945 -0.010845152 -0.031680774 -0.15678112 -0.14277862 0.12152665

dense1.bias f4 [256]
00000000: a3e7 25bd 8643 333e f7be e1bc ee08 2fbe
00000010: 65ed b33d 523d c73b 23e0 9ebd 9af1 88bd
00000020: 7c39 02be c681 543d 4ac5 36be f295 0a3d
00000030: ca5b 63bd de17 67be 4212 f7b9 8ab4 a83c
00000040: 8134 2abb 9ee1 74be 4fb4 fcbd 7eb1 edbd
00000050: 966a 193e 6543 06be d12d 15be f554 113e
00000060: 224f 4f3d cee0 1c3e d9fd c33d bc0e 04bd
00000070: f80e 65bd 2533 053d 7635 80be f736 b7bc
00000080: e6a5 f1bd 8335 17bd d031 1d3e b142 413e
00000090: 6151 733e 72c9 66bd cf74 a63d f160 00bc
000000a0: e09a 27be 6947 32be e47f 10bd b7bc 9ebd
000000b0: 1df8 ef3d 5b0f 083e 7d1c 4e3e 9d9c f03c
000000c0: a0f2 de3d afbc 003e bbdf 873e bf0c 52be
000000d0: 4abd f33d 32fb 383e 0e81 a5bd 1c64 bc3d
000000e0: c540 a0bd 5f3f 053d 61be 12be 6b7f 01bd
000000f0: 6556 29be bd58 323e b82c 14bd 366c 23be
00000100: 7929 8a3d aa48 b4bd 2fbf b33d 2d3c 91bd
00000110: bb3c 8e3d 142d 44be 8526 6a3d beda e3bc
00000120: 078e 253e 8986 453e 5fb2 aabd f4d1 143e
00000130: e7c7 9c3c 8702 93bc 718b 31be b60a f93d
00000140: bf60 cf3d 204d 153b 5ab9 15bd a6e0 1bbe
00000150: b496 cabd abf7 00be 1632 07be a712 f13c
00000160: fab0 47be 602a 403e 3e39 133c 4010 fdbd
00000170: c869 5e3e 96bb 30bd 7a44 58be 7e6c a3bb
00000180: 60c7 86bd 79e9 633e e48b 49be 1bb9 043e
00000190: 76c8 073e 56ab 50be e706 e5bd 965f 83be
000001a0: 185b 8cbd 7303 1fbe ae5f b2bd ccbf cd3d
000001b0: e46b e63d f62d de3d 8d63 383e b08e 0b3d
000001c0: f94b 93bd 8066 433e 77e7 0abb 7089 ff3d
000001d0: b242 05be 3aeb 1abe 2e3a 7e3d 7eb6 bebd
000001e0: a942 2ebd 89db 9d3e 6d25 c1bd f5d3 7e3d
000001f0: e150 563e 200f 323e d59e 15be 80eb 4a3d
00000200: a209 cc3c c4d2 69be 7e26 bd3d 9b58 653d
00000210: 189b 99bd 0466 9bbe b5b4 6abe 3602 2a3d
00000220: df30 66be ee34 d7bd b735 4fbe cb0a aabd
00000230: c4e6 a6bd 08f7 723e a3b2 a2bc 704f 393d
00000240: dd82 04be 5a59 06be c297 883d 504a f7bc
00000250: b7c1 b3bd 5a8c 7f3c c046 17be 84d7 d9bc
00000260: afe1 31bd d922 953d f8f0 14be 5351 41bc
00000270: aaf4 1b3e d23e 84be e59a 113d e5d5 9c3c
00000280: d6ab 123e 7cef e3bc 4b64 0b3e 1581 f03d
00000290: 990f 20be 03c1 163e 428a 77be 30f2 903a
000002a0: f29f 82bb c8a3 84bd d71a 51bd 3962 e83d
000002b0: 1e6e 7c3e cafe 09bd f747 05be 4e65 1abe
000002c0: d9ae 1cbd 43f8 233e 4bf7 763d a87a 0abe
000002d0: bd7b 39be fa41 e8bd 77da 55bd c07f dcbd
000002e0: 4d1f 183e 0cfb cabc 0d3a 563b ad82 2f3d
000002f0: 9922 583c 792e 933e 3655 6cbe 9eae c13c
00000300: e8a4 f0bd e8df 2cbe 0b6f 30bd d420 efbd
00000310: 4b3f 77bd 499c 15bd b67e 68bc 80f2 583d
00000320: 1f31 cabd 8a28 01bd 8c5d 2b3e 1ae9 203e
00000330: b5cf eebd 326e 2dbe ce34 2dbe 7449 483d
00000340: 71ad 183e ffc6 49bd 0bf0 1dbe 04ab 0d3e
00000350: a971 593e 984b 5b3e c845 3fbe 961f 87bc
00000360: 513c 05be ebfd 90be 7b52 b0bb 4082 9d3c
00000370: 5488 f6bd e9d5 fa3d c513 b7b9 9691 26be
00000380: c650 023e 48d3 39bc c56a 03be 3433 793e
00000390: ddb9 8d3c 2c3b afbd 538d 8fbc b9ab 603d
000003a0: a752 013e f3a7 803d 4277 6bbd 5856 87bd
000003b0: 0d5f 243e c1c3 6bbe 97cd 69be 4c33 43bd
000003c0: 84a6 81be d974 46bd 678f 23bc b33f 1b3e
000003d0: a701 423e 8f53 ef3d 116d 02be 6674 0fbc
000003e0: 3dce f23d 9a24 83bc 19ed 3ebd 0c4d 72bb
000003f0: 1ff5 1a3e f933 2e3e 59e6 4f3e 12d5 71bd
-0.04050411 0.17506227 -0.02755688 -0.1709325 0.08785514 0.006080308 -0.077575944 -0.06686707
-0.12717241 0.051881574 -0.17848697 0.033834405 -0.05550746 -0.22567698 -0.00047125114 0.0205939
-0.0025971236 -0.23914191 -0.12339079 -0.116061196 0.14982066 -0.13111646 -0.14568259 0.14192565
0.050612576 0.15320131 0.09569902 -0.032240614 -0.05592248 0.03251948 -0.25040787 -0.022365076
-0.11799221 -0.036916267 0.15351033 0.18873097 0.23761512 -0.056344457 0.08127748 -0.007835613
-0.16367674 -0.17410053 -0.035278216 -0.07750838 0.11717246 0.13287108 0.20128055 0.029371554
0.10886121 0.12571977 0.2653788 -0.20512675 0.119013384 0.18064573 -0.08081256 0.09198782
-0.07824854 0.03253114 -0.14330436 -0.031615656 -0.16536863 0.17416663 -0.03617546 -0.15959248
0.067461915 -0.08802922 0.087767 -0.07091556 0.06945177 -0.19157821 0.05716564 -0.027814265
0.1616746 0.19289602 -0.08334803 0.14533216 0.01913829 -0.017945541 -0.17338349 0.12160246
0.10125875 0.0022781566 -0.03655372 -0.15222415 -0.098920256 -0.12594478 -0.132027 0.02942784
-0.19501105 0.18766165 0.008985816 -0.12356615 0.2172004 -0.043147646 -0.21119872 -0.0049872985
-0.065809965 0.22257032 -0.1968227 0.12961237 0.13260064 -0.2037786 -0.11182957 -0.25658864
-0.06853312 -0.1552866 -0.08709656 0.10046348 0.11251047 0.1084861 0.18006726 0.034071624
-0.07192225 0.1908207 -0.0021195093 0.12477386 -0.13013723 -0.15128794 0.062067203 -0.09312151
-0.04254404 0.30831555 -0.094309665 0.062213857 0.2092929 0.17388582 -0.14611371 0.049540997
0.024906937 -0.22834307 0.092358574 0.055992704 -0.07500285 -0.3035127 -0.22920497 0.041506015
-0.2247958 -0.105081424 -0.20235334 -0.0830284 -0.08149484 0.23727047 -0.019860571 0.045241773
-0.12940545 -0.13120022 0.066695705 -0.030186802 -0.087771825 0.015597427 -0.14773083 -0.026592024
-0.04342812 0.07282037 -0.14545047 -0.011799174 0.1523005 -0.25829178 0.03554811 0.019144962
0.14323363 -0.027824156 0.13612477 0.117433704 -0.1563095 0.14722066 -0.24173835 0.0011058506
-0.003986352 -0.06476551 -0.051050987 0.113468595 0.24651381 -0.03369025 -0.13015734 -0.15077707
-0.038252685 0.16012673 0.06029443 -0.13523352 -0.18113609 -0.11340709 -0.052210297 -0.10766554
0.1485569 -0.024777912 0.003268841 0.04284923 0.0131918425 0.28746393 -0.2307938 0.023642834
-0.11750203 -0.16882288 -0.04307465 -0.11676183 -0.060363095 -0.036526 -0.0141903665 0.05296564
-0.0987265 -0.0315328 0.16734904 0.15713921 -0.11660711 -0.16936567 -0.16914675 0.048898175
0.14909913 -0.049262043 -0.154236 0.13834769 0.21234764 0.21415555 -0.18678963 -0.016494554
-0.1301129 -0.28318724 -0.005380926 0.019227147 -0.12037721 0.122478314 -0.0003491921 -0.16266474
0.12726125 -0.011341877 -0.12833698 0.24335939 0.01730054 -0.08556208 -0.017523443 0.054851267
0.12629186 0.06282034 -0.05748678 -0.06608266 0.16051884 -0.23023893 -0.22832333 -0.047656342
-0.25322354 -0.04845128 -0.00998292 0.15161018 0.18945943 0.116858594 -0.12736918 -0.008755779
0.11855743 -0.016008664 -0.046612833 -0.0036972193 0.15132569 0.17012013 0.20302714 -0.05904109

conv_initial.weight f4 [32, 1, 5]
00000000: e911 b4bd 544c a5be 9c4c 5dbe 74e3 eabe
00000010: 22aa de3e fcc1 aabd 52bf 25be 4ed1 253e
00000020: 59fe 91be 4860 693d f49e 85bd e4d4 a13e
00000030: a4af 403e f2e1 ffbd 2dfd 523e e46f 59be
00000040: 7a3f bc3d 6046 94be 3e4b d43e 32a8 90be
00000050: 3457 f33d f7b6 6fbd 2074 9ebe 35ce df3c
00000060: 1880 9b3e 9510 cebe cd73 d33d 4bf1 f1be
00000070: 5e24 593e b621 a9bd 1799 d03e 0118 8e3d
00000080: ed9e 51be 676d ca3e 8232 b4be 497d e13e
00000090: cc0a bb3e 1a45 d5be 589f 4f3e e0e5 2ebc
000000a0: d1b0 a53e e8c0 f83d 6588 e43d a84f a23e
000000b0: e218 153e dd7f 463d b24c b13e 4b53 763d
000000c0: 7e52 a33e abd8 33be 56b8 fd3d eb1f ab3d
000000d0: 2050 823e 9747 c63e 77f3 003e 029a 223d
000000e0: c23a 61bd 0a6a d93e 2f2e cf3b 178e a4be
000000f0: 9288 0d3d 6955 a13e a31c ccbe 9b04 8a3e
00000100: 563d 4f3e 1475 e93e bb89 093d 2a11 c2be
00000110: a1fd 67bd 4280 c8be b939 7e3e aeed 523e
00000120: ac11 d93e 30e5 31be 738c c33e 03db 82be
00000130: 9b61 92be d5c3 d23e 4592 9abe 9c2e febd
00000140: 666d d8be 3287 51be 52bd a8be c553 edbe
00000150: 0f83 a6be 2ce4 823e 5038 c0bc 9aa2 693e
00000160: 8444 25be 22f9 f23e 97d7 ffbd 9908 a4be
00000170: a79c b43b 012d b03e 2259 853d 541b 48bd
00000180: 0101 e9be 69f4 163e 53f5 cabe 3680 89be
00000190: ce9e 12be 1256 e7be 4aab cbbd efe5 af3e
000001a0: 9c98 a7be 97e6 6d3e cd66 ce3e 4846 f5bd
000001b0: 203c 39be e2e6 413e ed6e 50be d217 863e
000001c0: d0df 7b3e bb66 0d3e 1662 3bbe 2b39 bb3e
000001d0: fe47 a93e 4f34 f7bd f173 1c3e a0e3 9d3e
000001e0: 921f 6d3e f22e de3d 53ec 9abe bc67 a23e
000001f0: 8811 61be 603a 4c3d 1a1a 913e d4a7 46be
00000200: dfac 70bc 4a6e adbe d713 743e cd4e 4bbe
00000210: 45d8 2f3e f6f8 0abd 76f3 443e 58f6 773c
00000220: e43e d13e 8581 813e 8e7e dc3e ccae 483e
00000230: 4449 eb3c 6c39 a83e 46a3 913e 9774 8a3d
00000240: 1c6c 983e 26eb 95be 07d7 373d 1f4a 3d3e
00000250: 8585 053e b895 003e d8b8 82be 82f1 c7bd
00000260: febd 093e b7c4 b1bd 3b92 36be e3c4 533e
00000270: 39a6 66bd fd20 ec3d 67ae 0ebe a648 43be
-0.087924786 -0.32284796 -0.21611255 -0.45876658 0.43489176 -0.08337781 -0.16186264 0.16193125
-0.28514364 0.056976587 -0.065244585 0.31607735 0.18817002 -0.124942675 0.20604391 -0.21234089
0.09191795 -0.28959942 0.41463655 -0.28253323 0.11881867 -0.0585241 -0.3094797 0.027320007
0.30371165 -0.40247026 0.103248216 -0.47254404 0.21205279 -0.08258383 0.40741798 0.06938172
-0.20470782 0.39536592 -0.35194784 0.44040897 0.36531675 -0.41654283 0.20275629 -0.010674924
0.32361463 0.12146169 0.11158828 0.31701398 0.14560273 0.048461784 0.34628826 0.060138028
0.31898874 -0.17563121 0.12388675 0.08355697 0.25451756 0.38726494 0.12592874 0.039697655
-0.054987676 0.42463714 0.006322644 -0.32139656 0.03455407 0.31510475 -0.39865598 0.2695664
0.20238242 0.45597136 0.033578616 -0.3790372 -0.056638364 -0.39160353 0.24826707 0.2059848
0.42396295 -0.17372584 0.38193092 -0.25557718 -0.28590092 0.41165033 -0.3018972 -0.12411234
-0.42270964 -0.20461729 -0.3295694 -0.46352974 -0.32521865 0.25564706 -0.023464352 0.22815934
-0.16139418 0.47455698 -0.124922924 -0.3203781 0.0055118385 0.34409335 0.06511141 -0.048854187
-0.45508578 0.14741673 -0.39640293 -0.2685563 -0.14318392 -0.45182854 -0.0994478 0.34355113
-0.3273362 0.23232494 0.40312806 -0.11976296 -0.18089342 0.18935731 -0.20354815 0.26190048
0.24597096 0.1380872 -0.18299136 0.36567053 0.33062738 -0.12070524 0.15278603 0.30837727
0.23156574 0.10848798 -0.30258426 0.31719768 -0.21979344 0.04986036 0.28340226 -0.19399959
-0.014689653 -0.33873206 0.23835693 -0.19854279 0.17172344 -0.033928834 0.19233498 0.0151344165
0.40868294 0.25294128 0.43065304 0.1959793 0.02872146 0.3285631 0.2844488 0.06760519
0.2976998 -0.29280967 0.0448828 0.18485306 0.13039215 0.12557113 -0.2553165 -0.09762861
0.13451383 -0.086800985 -0.1782922 0.20680575 -0.056310866 0.115297295 -0.13933717 -0.19070682

conv_initial.bias f4 [32]
00000000: cb66 ce3e a482 cebe dac0 023e a1db 683e
00000010: 148d c83c 8a2f 1fbe ace6 933e 2292 6fbe
00000020: 3980 e13d 8286 58be 6168 97be e41c 91bc
00000030: b048 c9be 1ac4 91be 6901 33be 749b 793e
00000040: c32d d5be f204 a2be 23e3 8d3e ee37 dd3e
00000050: 0887 be3e 5256 23bc aa42 913e e212 023d
00000060: 107d d8be 37b6 c93e 53de 913e d2cb e63d
00000070: c361 cdbe 874a 193e fbd0 6bbe e340 82be
0.403128 -0.40334046 0.1276888 0.22740032 0.024481334 -0.15545478 0.28886926 -0.23395589
0.11010785 -0.2114506 -0.29571822 -0.017713971 -0.3931327 -0.28469926 -0.17481007 0.24375707
-0.41636476 -0.31644398 0.27712354 0.43206733 0.37212396 -0.009969311 0.28371173 0.03175629
-0.42282915 0.3939683 0.28489932 0.112693444 -0.4011365 0.14969836 -0.23028938 -0.2544013

norm_initial.weight f4 [32]
00000000: 96a5 833f 0152 823f 22c9 7b3f 87cb 813f
00000010: 49db 793f 6376 7d3f ad5d 7e3f d72c 7b3f
00000020: de8b 843f 4254 7e3f 9513 843f 1ece 7f3f
00000030: 061c 813f 8f60 893f 8790 813f a325 883f
00000040: 4199 863f a395 793f 085b 7f3f b45a 7f3f
00000050: 4fe0 833f 2595 7f3f 3a16 783f 3140 803f
00000060: e66a 7c3f 3b6d 7d3f a320 7e3f fb74 833f
00000070: 2da4 793f 38c6 843f 9c6d 803f 3cd5 823f
1.0284908 1.0181276 0.9835378 1.0140237 0.9760023 0.9900877 0.9936169 0.98115295
1.0355184 0.9934732 1.0318476 0.99923885 1.0086677 1.0732592 1.0122231 1.0636486
1.0515519 0.9749395 0.9974828 0.99747777 1.0302829 0.9983695 0.96908915 1.001959
0.98600614 0.989948 0.9926855 1.0270075 0.9751614 1.0372992 1.003345 1.0221324

norm_initial.bias f4 [32]
00000000: d6d9 bc3b f899 543c 2999 313d 8808 fcbb
00000010: aa07 64bb a3b8 133d 821e 9e3d 54e4 623c
00000020: bbb8 4a3d 211e 0a3c c1b7 563d c1cb b63c
00000030: 0930 3d3c 9432 c13d c944 1e3d d488 9b3c
00000040: 5686 bc3d 1503 e8bb a8aa 3b3d 63a9 ad3b
00000050: ba02 adbc 2cb6 cdbc 7638 efbc f6f1 12bc
00000060: a4cd 893c b224 513d 1b56 d33a 9720 b93c
00000070: eb0a 98bc 6e80 a7bb 3601 22bc e7ae 8a3d
0.0057632728 0.012976162 0.043358956 -0.0076914467 -0.0034794607 0.036064755 0.07720663 0.013848383
0.04949258 0.008430035 0.052421335 0.022313954 0.011547097 0.09433475 0.038639817 0.018986143
0.0920531 -0.0070804455 0.045817047 0.0052997335 -0.021119464 -0.02511128 -0.029201727 -0.008968821
0.01682169 0.051060386 0.0016123684 0.022598548 -0.018559894 -0.0051117456 -0.009887984 0.06771641

res_unit1.pointwise1.weight f4 [32, 32, 1]
00000000: 6107 a9bd 973a 28be 1fc3 a23d e508 c3ba
00000010: b01d 40bd 254c 1a3e d122 debd 0a9c 17be
00000020: bcdd 0cbd 28c7 febd 02b3 a53d 01aa a7bd
00000030: c600 47bd fa11 8fbd bc5a 04be 8f34 e2bd
00000040: 73c3 6abd 5ae9 2a3d aa8d b13d e08e f4bd
00000050: 25e9 a13d 9b76 e7bd 4c39 af3d ef28 ac3d
00000060: bc38 30be e2dd ea3c 730a d73d 93cf d4bc
00000070: 5098 c93d 3b14 373e 5815 ed3d a49b 4dbd
00000080: 406c 433b 912b 18ba 16cd ba3c ca1e 2abe
00000090: 32c4 323e 0fba c13d c705 56bd 7325 a33d
000000a0: 5e2e 35be 5394 97bb ba9f f43d 1bcf bc3c
000000b0: c210 2ebe 0627 f5bd 8d13 fd3c 49ab bebd
000000c0: 22b1 bc3d 8822 f03b e231 94bd 10fe 363d
000000d0: f00e aabc e1ce 2d3e 3e0a 5c3e 09aa 043e
000000e0: 7bbd 2dbe 5bd1 283e d693 e3bc 75cb b73c
000000f0: 725e 01be 9c19 893d 98df 303e 9688 d03d
00000100: e4e4 29be e7d1 66bc 414b 883d 8ad4 5ebe
00000110: 66c9 dabb abce 38be 9a24 1abe 50e6 77bd
00000120: e148 83bd b0ac c83d cc4c eebd ae15 88bd
00000130: 6461 d1bd 5865 503d d1eb 223e a7bf 273e
00000140: 6747 8abd a88e 243d 258f 5abc 7f63 02bb
00000150: 6496 1ebe 754b a0bd baaf 8dbd dbaa 06be
00000160: b74e 0e3e 8155 8e3c 00f8 27be 82d4 1f3d
00000170: 2b04 83bd bec5 123e 279b 01be 61bd dc3d
00000180: d072 8b3d 5fb7 173e ae8e a5bb 2d06 42bd
00000190: 0f5d 2fbe 5a74 dfbd 2132 b83c 5a30 023e
000001a0: d08b b6bd c3e7 143e de02 503d 5881 d2bb
000001b0: 5baa 453d 24eb 1ebe d24c 76bd bb90 4bbd
000001c0: 0fe1 1ebd 0f48 813c 81d5 29bc 54a1 1fbc
000001d0: b9e4 e7bd a67a 17be 49d6 8dbd 028b 233e
000001e0: 19e4 8b3c c8ad 0a3e 022b 823b 6b6b 3d3e
000001f0: adeb fbbd 2818 d7bd 9193 003e 908f 0dbe
00000200: 1680 02bd 4208 c8ba 8c02 7f39 3f27 54bd
00000210: 8c4b 4fbe 3c16 183d 448f 45be 3df3 b9bd
00000220: 4750 8e3d 450d 2c3c b1bd b53d 9e8c 4e3e
00000230: 9f79 033e ffa7 60be be66 c93d e7d7 383e
00000240: 053e 2abe af9c 03be e07a bb3d 7a21 feba
00000250: ca96 6abe 5e56 9cbc 7e47 203d 05e6 3c3d
00000260: 33d8 8b3c dfc7 0fbe 3fab ad3c e337 093e
00000270: 45a7 7c3d 7dac 383d 8398 0fbe 3372 09be
00000280: 8b72 50be af83 0d3d 9ce5 373e 8316 70bd
00000290: 1d70 003e ed80 cebd 96e0 00be 3b07 4b3c
000002a0: 4b90 e53c 9e9c e03d 051e 163e f6e0 1abd
000002b0: f31d 4abd 1817 fcbd e7ac e8bd 9429 603d
000002c0: 454c 1fbe f356 313e ecf4 0abe f36f afbd
000002d0: 2f00 9dbc f4cb 033e 2a8d 45be 9706 ca3d
000002e0: 96f0 b2bd d4e0 1b3e e3ea 91bc ccea 46bc
000002f0: a7cb 113e 662e 093e 6d92 cc3c ce50 1a3e
00000300: 5928 263e acf7 23be e589 813d ef8a 22be
00000310: 87f5 323e 3bba 5d3c 2fa9 86bd a59d e53d
00000320: ee06 c2bb a8b1 49bd 44cf 11be 515c ab3d
00000330: 8763 4f3e 5c20 c1bd ac20 ba3d 4dca 593c
00000340: ef42 d63d 8529 213e 2f21 d43d 4f27 35be
00000350: 6594 03bd 9f9e f1bb 7fae f23d ca20 863d
00000360: 5ab6 f4bd 9f37 0b3e d820 31bd 9936 a23d
00000370: a730 8fbd 119e 3abd f47f a43d 9a7e 6f3c
00000380: 9c43 b2bd bf97 eabd 81b1 fbbd 6b24 f9bc
00000390: ca33 b3bb 0d09 023e d7da a9bd 9b6e b0bc
000003a0: 9038 1e3e b5a0 ec3d 837a 59bd adde e9bd
000003b0: 3c35 0d3d 273f d33d 67b1 b5bd 6391 31be
000003c0: ee1d fb3d ea37 3cbe c04f 04bd 672b ffbd
000003d0: 0fbc 0bbe e4c8 103e 37cf f2bd 09b2 b13d
000003e0: cb6d aa3d cf18 89bd 76f0 a5bd 5023 b9bd
000003f0: 4b70 21be 2412 6f3d 098b bd3d 0c39 c3bc
-0.082533605 -0.164286 0.07947373 -0.001487997 -0.046903312 0.1506811 -0.108464845 -0.14805618
-0.03439115 -0.1244033 0.08090784 -0.081867225 -0.048584722 -0.06985851 -0.12925237 -0.11045181
-0.0573153 0.041726448 0.086695984 -0.11941314 0.07905797 -0.11301919 0.085558504 0.08406245
-0.17209142 0.028670255 0.1050004 -0.025977885 0.098435044 0.17878811 0.115763366 -0.05019726
0.002981916 -0.0005804832 0.02280287 -0.16613308 0.17457655 0.09459316 -0.052251603 0.07966127
-0.17693469 -0.004625836 0.11944528 0.023047974 -0.1699858 -0.11970334 0.030893112 -0.09310014
0.09213473 0.007328335 -0.07236077 0.044675887 -0.020759076 0.1697345 0.21488282 0.12955488
-0.16966812 0.16486113 -0.027780455 0.022435883 -0.12633684 0.06694338 0.17272794 0.10182302
-0.16591221 -0.014088131 0.066549785 -0.21760765 -0.0066768406 -0.18047588 -0.15053025 -0.060522377
-0.06410385 0.097985625 -0.116357416 -0.0664476 -0.10223654 0.0508779 0.1591027 0.16381703
-0.067519 0.04017511 -0.013339792 -0.001989573 -0.15487057 -0.07826892 -0.06918283 -0.13151114
0.13897215 0.017374756 -0.16403198 0.039021023 -0.06397279 0.14333245 -0.12656842 0.10778309
0.06809008 0.14816044 -0.005052409 -0.04736917 -0.17125343 -0.10910864 0.02248484 0.12713757
-0.08913386 0.14541535 0.050783984 -0.0064241104 0.048258167 -0.15519387 -0.060131855 -0.049698573
-0.03878885 0.01578143 -0.010365845 -0.0097430535 -0.11322922 -0.1479288 -0.06925637 0.15970996
0.017076539 0.13542855 0.003972412 0.18498008 -0.12300811 -0.10502654 0.12556292 -0.13824296
-0.031860434 -0.001526125 0.00024319644 -0.05179524 -0.20243663 0.03713058 -0.19292933 -0.09079597
0.069489054 0.010501211 0.088740714 0.20170829 0.12839364 -0.21939085 0.0983405 0.1805111
-0.16625221 -0.12852739 0.09154296 -0.0019388639 -0.22909084 -0.019084152 0.03913068 0.0461178
0.017070865 -0.14041089 0.02119982 0.13400225 0.06168296 0.045086373 -0.14023022 -0.1342247
-0.20356195 0.03454941 0.17958683 -0.05861522 0.12542768 -0.100831844 -0.12585673 0.012391861
0.028022906 0.10967372 0.14659889 -0.037812196 -0.049344968 -0.12309092 -0.113611035 0.054727152
-0.15556438 0.17318325 -0.13569993 -0.085662745 -0.019165127 0.1287077 -0.19292131 0.09864538
-0.087372944 0.15222484 -0.017812198 -0.012140941 0.14237843 0.13396606 0.024972165 0.15069887
0.16226329 -0.16012448 0.063251294 -0.15873311 0.17476474 0.01353317 -0.06575238 0.11211709
-0.0059212362 -0.04924169 -0.14239222 0.08367217 0.2025281 -0.0943 0.09088263 0.013292861
0.10461985 0.15738495 0.10357892 -0.17690776 -0.032123942 -0.0073736454 0.11849689 0.06549223
-0.11948843 0.13595437 -0.043244213 0.0792057 -0.069917016 -0.0455609 0.080322176 0.0146175865
-0.08704302 -0.114547245 -0.122897156 -0.030412873 -0.00546882 0.12698765 -0.082936935 -0.021537116
0.15451264 0.1155409 -0.053095352 -0.11419425 0.034474596 0.1031478 -0.088717274 -0.17340617
0.12261568 -0.18380705 -0.032302618 -0.1245945 -0.13645957 0.14139134 -0.11855929 0.08676536
0.083217226 -0.06694185 -0.08102505 -0.090399384 -0.15765493 0.05836691 0.092550345 -0.023830913

res_unit1.norm1.weight f4 [32]
00000000: 5d0c 823f 6dea 823f f508 803f 32ec 793f
00000010: 9cc5 823f 6c43 853f d968 8b3f 7df1 853f
00000020: 67f2 8d3f 30fc 873f 63e4 7e3f 76e7 863f
00000030: 6a6e 803f 1112 813f 8efb 723f fb7c 7f3f
00000040: 4254 823f 2200 803f 1fa0 843f eff2 7d3f
00000050: 36ab 843f 2ab4 863f 5fb7 833f 2bbb 773f
00000060: 97d9 873f 0547 7e3f 8c99 753f cf8e 823f
00000070: a3c5 793f 8307 863f f42c 823f 3b18 873f
1.0160023 1.0227791 1.0002733 0.9762603 1.0216556 1.04112 1.0891372 1.0464321
1.10896 1.0623837 0.9956724 1.0539386 1.0033696 1.0083638 0.9491509 0.9980008
1.0181963 1.000004 1.0361365 0.9919881 1.036475 1.0523732 1.0290335 0.9676997
1.0613278 0.9932712 0.9593742 1.0199832 0.97567195 1.0471042 1.0169969 1.055427

res_unit1.norm1.bias f4 [32]
00000000: 1145 93bc b57e fd3c 0991 f53c aba5 a43c
00000010: 9ed0 2b3d d39a ec3c e858 5dbd e5ec c4bc
00000020: c271 8fbc 3507 ebbb 2a63 d73b 51d7 37bb
00000030: e0fd a2b9 d2e4 78bc 39aa 34ba f39c bc3d
00000040: a5c5 2ebc c3da 45bd 2e78 e2bc 7965 793c
00000050: 98dd 883c 0f60 f5bc 293d 42bd f5ab 293d
00000060: b8b7 a5bc 8a40 613c 247d 293d 366c a13b
00000070: 3671 16bc 64dd dd3c 2dc8 063c 440e c73b
-0.01797727 0.030944208 0.029976385 0.020098528 0.041947 0.02888242 -0.054039866 -0.024038741
-0.017510299 -0.00717249 0.0065731006 -0.0028051923 -0.000310882 -0.015191274 -0.000689182 0.09209623
-0.010667239 -0.04830433 -0.027645197 0.015221947 0.016707227 -0.02995303 -0.047421608 0.041423757
-0.020229205 0.0137482975 0.04137911 0.00492623 -0.009182265 0.027083106 0.008226437 0.0060746986

res_unit1.norm1.running_mean f4 [32]
00000000: ce2b 07be 6df3 ec3d 61a1 69be e910 59bd
00000010: 7f53 04be 8746 eb3c dd59 0e3e a5c5 34be
00000020: 4e3c 9bbe 1470 86bc c365 a53c 4e76 f7bc
00000030: 7d93 af3d 7021 65bd 9d36 24be f6ce 7bbe
00000040: 5d22 283e 9464 9abe db3b 2e3e 2e5f 35bd
00000050: 679a 1f3e 0e32 3c3e 653b bfbe 800d 9abe
00000060: 40fd 13bd a1a2 463e caf3 46bc 8fa4 26be
00000070: d801 9dbd b79c 1ebe 2ca1 54bd 02a6 0dbe
-0.13200304 0.11569867 -0.22815467 -0.052994642 -0.12922476 0.028720153 0.13901468 -0.1765352
-0.30319446 -0.016410865 0.020190125 -0.03020778 0.08573053 -0.05594009 -0.16036458 -0.24590668
0.16419359 -0.3015486 0.1701502 -0.044280224 0.15586244 0.1837847 -0.37350002 -0.30088425
-0.03613019 0.19397976 -0.012143085 -0.16273712 -0.07666367 -0.1548947 -0.051911518 -0.13832858

res_unit1.norm1.running_var f4 [32]
00000000: 90b3 583e a86f f83d 15e9 403e dc54 7d3d
00000010: de2b b33e f47e 763e 95fd 093e 9cf8 8b3e
00000020: 5018 a63e 8940 6f3e bcbc 303e 51f9 6a3d
00000030: 47cb 493e 2c9b 103e 7e2f ac3d 79b8 523e
00000040: 994f 5c3e 48a6 513e 1d77 4d3e 2729 3f3e
00000050: f461 643e d1b9 653e 969c 863e 2482 753e
00000060: 2f97 8c3e 5336 923e bc14 413e cfc3 553e
00000070: be5c 833e cb07 3c3e 8452 923e 4353 873e
0.21162248 0.12130672 0.18838914 0.061848506 0.34994406 0.24071866 0.1347564 0.2733811
0.32440424 0.23364462 0.17259496 0.057366673 0.1970645 0.14121693 0.08407496 0.20578183
0.21514739 0.20473588 0.2006497 0.18668042 0.22302991 0.22434165 0.2629134 0.23975426
0.27459094 0.2855707 0.18855566 0.20875476 0.25656694 0.18362348 0.2857858 0.2643071

res_unit1.depthwise_conv.weight f4 [32, 1, 5]
00000000: 9465 e6be 5228 0cbe cb81 873e bcd4 b3be
00000010: e368 e83e 5679 48bd b97c abbe 8fb4 aebe
00000020: 8b74 873e ea2e 33be 52a3 593e 7b8b c1be
00000030: 0159 9ebd 26a6 d03e 087d 80be e21b 423d
00000040: dc52 b4be 500b d33e 5848 963d bb4e e23d
00000050: b0cc f83d 0edb a23c eece 58be 753d 34be
00000060: d669 25be e18a 3f3e 43d3 953e 467f dbbb
00000070: e90e e83e c590 a73d 8fec bdbc 8038 2f3c
00000080: 06c7 67be ab66 d5bc a8d3 b83d 1820 a1be
00000090: 3ac0 97be 746e 48be 523d 8e3e 89e7 aebe
000000a0: 643e a33e 56bb 65be 7d46 9ebe bf75 67be
000000b0: a462 3abe 7f7f 803e 086b 7e3d dd51 edbe
000000c0: f10a 873e 7e6e b7bd edb6 f33e 17ce b33e
000000d0: 3081 483e 9ccf 6b3d c74e ab3e 7e5d fb3e
000000e0: ff34 09bd f87f eb3c 1690 48bd e8ab 8aba
000000f0: 4637 2dbe 93fd 823d 599a 823e 3246 dabd
00000100: 6830 8cbe 6bc6 0f3d 67a7 8ebe 1a8a d5be
00000110: 5c66 bcbe f3db 8abd b823 48be fb55 cb3e
00000120: 817a 4f3e 83a2 943e 3315 a6be 8f25 c0be
00000130: 7829 fabd 42aa c2bd 4069 15be e68c b5be
00000140: 481f 09be 4d3d 933e 7f0d c23d 335a 4e3e
00000150: 4086 babd f4f8 74be f440 213c 4434 cebe
00000160: 3571 3cbe f913 d3be bf16 d33e fc6f 913e
00000170: 2997 d33e fbed 2d3e ffe5 e0be bf44 14be
00000180: cc10 83be bf76 613d 196c 1fbd 0dfe 28bd
00000190: 0514 cf3e 92aa 19be 9470 9bbe 5a6b 89be
000001a0: a6a9 85be b5dc d5bd 4ba2 b6be 4e92 cd3c
000001b0: 1ef3 bebe f8cb c1be 9eef 9e3e 2b37 b3be
000001c0: 4c2b adbd 18c2 243e 5ff5 46bd df59 84be
000001d0: 7b88 9f3e b056 523e c4bc 983e 991f 7c3e
000001e0: 2773 b03e cf0d c0be cd7f 873e 2a97 96bc
000001f0: 10cb 17bd fe10 973e b8d8 15be 9859 d9be
00000200: ddb5 81be 97d5 2b3e cc29 c6bd 00f1 b53e
00000210: 987b 473e fa04 73be 782f b63e 6487 463e
00000220: 32c0 24be f7ea c4be 3402 6c3e 81d7 9cbe
00000230: 15e7 63be 003a ea3e 0827 bf3e 4434 8b3e
00000240: 026d cf3e 4862 dbbe d1c5 d33e b351 aebe
00000250: 7547 afbe 3b39 ab3d 3475 d9be 23eb debe
00000260: e000 4a3e 17a4 3dbe 6854 4a3e 1194 a9bc
00000270: 8d42 a03e 636c 39be cb49 cabe 6477 76bd
-0.44999373 -0.13687256 0.26466212 -0.3512324 0.45392522 -0.04894384 -0.33493593 -0.3412213
0.26456103 -0.17498365 0.21253708 -0.37801728 -0.0773182 0.4075176 -0.2509539 0.047389872
-0.35219467 0.41219568 0.07338017 0.11050173 0.12148416 0.019879844 -0.21172687 -0.17601569
-0.16153654 0.18705322 0.29262742 -0.006698522 0.45323876 0.081819095 -0.023184089 0.010694623
-0.22634515 -0.026049932 0.09024745 -0.31469798 -0.29638845 -0.19573385 0.2778116 -0.34161022
0.31883538 -0.22434744 -0.30913153 -0.2260351 -0.18201691 0.25097272 0.06211379 -0.4635152
0.26375535 -0.089566216 0.476005 0.35118172 0.19580531 0.05757104 0.3345854 0.49094766
-0.033497807 0.028747544 -0.048965536 -0.0010579797 -0.16915616 0.06396022 0.25508383 -0.1065792
-0.2738068 0.035101335 -0.27862093 -0.41706926 -0.36796844 -0.06780233 -0.19544876 0.39714035
0.20261575 0.29030237 -0.3243805 -0.37528655 -0.12214941 -0.0950513 -0.14590931 -0.3545906
-0.13390839 0.28757706 0.094752304 0.20151596 -0.091076374 -0.23923093 0.009842146 -0.4027425
-0.1840256 -0.41226175 0.4122829 0.2840575 0.41326264 0.16985314 -0.43925473 -0.1447935
-0.25598752 0.055044886 -0.03892145 -0.041257907 0.4044496 -0.15006474 -0.30359328 -0.26839715
-0.26105994 -0.10442487 -0.35670695 0.025094178 -0.3729486 -0.37850928 0.31042188 -0.35003027
-0.08455524 0.16089666 -0.048573848 -0.25849816 0.31158814 0.20540881 0.29831517 0.24621429
0.34462854 -0.37510535 0.26464692 -0.018382628 -0.03705889 0.29505152 -0.14633453 -0.42451167
-0.25334063 0.16780697 -0.09675941 0.3553543 0.19480741 -0.23732367 0.3558309 0.19387585
-0.16088942 -0.38460514 0.23047715 -0.30633166 -0.2225612 0.45747375 0.37334466 0.27188313
0.40512854 -0.4284842 0.4136186 -0.34046707 -0.34234205 0.08360525 -0.4247223 -0.4353877
0.19726896 -0.18519627 0.19758761 -0.020700486 0.31300774 -0.18107753 -0.39509425 -0.060172454

res_unit1.norm2.weight f4 [32]
00000000: 3fb8 7c3f 847b 813f 5222 873f 423a 723f
00000010: ab76 803f 97c6 873f 9c36 703f 8a75 793f
00000020: 97bf 843f 6045 823f d508 743f fa98 853f
00000030: d1d0 7f3f 4ead 7e3f 563b 773f 9d2f 893f
00000040: 3985 813f e179 843f 4832 833f 1b05 7c3f
00000050: b3dd 823f 8c9b 803f e9f1 803f b771 743f
00000060: b6c7 823f 579c 803f 135d 783f a7bb 803f
00000070: 71b0 733f 200b 853f e6aa 823f 274c 7f3f
0.9871864 1.0115819 1.0557349 0.94620144 1.0036215 1.060748 0.9383333 0.97444975
1.0370969 1.0177422 0.95325977 1.043731 0.99928004 0.9948319 0.96574914 1.0717655
1.0118781 1.0349694 1.024972 0.9844529 1.0223907 1.0047469 1.0073825 0.95486015
1.0217197 1.0047711 0.9701702 1.0057267 0.95191103 1.039402 1.0208404 0.99725574

res_unit1.norm2.bias f4 [32]
00000000: f200 5abd 94e1 e43c a916 9abb f17e a53b
00000010: c87c a9bb d44c 183d 99a8 a0bc 9e9d 30bd
00000020: c4e0 d93c 5d15 b33d f8eb 08bd da17 bfbb
00000030: 9e2a 653b a142 573d b982 5c3c f3c6 163d
00000040: 2d24 93bb b8eb f03c faa6 0fbd f4b7 d33a
00000050: e651 293d 729f 393d 4b62 e33c 4985 2a3c
00000060: 1ad8 9a3d 3331 233c 66b0 a0bc 7d81 3d3d
00000070: 2d9d d0bc b99b 923d e95e 303c 29cf 5bbb
-0.053223558 0.027939595 -0.0047024083 0.005050533 -0.005172346 0.037182644 -0.019611644 -0.043119065
0.026596434 0.08744309 -0.033428162 -0.0058317007 0.0034968029 0.052553777 0.013458901 0.036810827
-0.0044903965 0.029409274 -0.03507135 0.0016152845 0.04133787 0.045318075 0.02775683 0.010407754
0.07560749 0.0099604605 -0.019615363 0.046266068 -0.025465572 0.07158608 0.010764816 -0.0033540225

res_unit1.norm2.running_mean f4 [32]
00000000: c76a 45bd 7378 19be 03ce abbc ed46 783d
00000010: 7c81 d2bd 9c30 813e 8a24 17bd 0994 40be
00000020: 3433 0ebe 5c15 df3b febb a13e 9e01 d33d
00000030: ae72 50bd c618 76be cbcf 973d f8ec 93be
00000040: facd a43d b63f 5abe eabf 2d3e c08d c7bd
00000050: 1ca0 09be d231 87be fc14 03bb c8ae 333e
00000060: 7303 2e3d 46d9 9dbd 2245 093e a605 cabd
00000070: b635 8c3e 5d6f 17be f3a0 1abe 3c2e acbd
-0.048197534 -0.14987354 -0.020972257 0.060614515 -0.102786034 0.252324 -0.03690008 -0.18806471
-0.1388672 0.006807966 0.3158874 0.10303043 -0.050890617 -0.24032888 0.0741268 -0.2889173
0.080470994 -0.21313366 0.1696774 -0.097438335 -0.13439983 -0.26405197 -0.0020001521 0.17547143
0.04248376 -0.07707457 0.13405278 -0.098643586 0.27384728 -0.14788575 -0.1510046 -0.08407256

res_unit1.norm2.running_var f4 [32]
00000000: 1410 233e c029 493e 83cc a93d 9888 0e3e
00000010: 2c95 743d 815e b03e 4044 323d 4674 9e3d
00000020: 4418 063d 8d7b 063e 4a44 d63e d3ab c93d
00000030: 9cff 823d 5046 e93d e26d 8d3d 1d1b a23d
00000040: 445d dd3d 7df6 2e3d 25b6 df3e 211b 203d
00000050: e3a1 b83e 4eca 023f 11f8 ba3c 740e 063d
00000060: fec3 273e 11d1 683e 5397 143e d722 a53d
00000070: 9021 953e 05fe 0f3e 2b56 243e dd86 833d
0.15924102 0.19644833 0.08290961 0.13919294 0.059712574 0.344471 0.04352212 0.07737021
0.032737985 0.13133068 0.41848975 0.09847226 0.0639641 0.11390364 0.06905724 0.07915328
0.10808805 0.04271554 0.43693653 0.039088372 0.3606101 0.5108994 0.022823365 0.032728627
0.16383359 0.22736003 0.1451085 0.08063286 0.2912717 0.14061745 0.16048495 0.064222075

res_unit1.pointwise2.weight f4 [32, 32, 1]
00000000: ba9b 133e 6fc0 143e dcbc 8a3d f0c7 1a3e
00000010: e3a6 773d c839 2f3e 570f 98bc f47c 0cbe
00000020: f697 c0bd febb 2a3e f4c4 e23c 57d2 2a3e
00000030: 30d0 a63c 2528 3fbe 7cc6 993d 038e 083e
00000040: 379c 2e3e b033 233e aee2 8cbd 9125 3a3e
00000050: 1484 52bd 7788 9a3d 97ee 36be 89d9 debd
00000060: a515 e0bd 7f75 8bbc 3bdc 253e 3f48 1d3e
00000070: be4d 6ebc c6a0 363e 5103 30be de0e 9d3d
00000080: b574 20bd 83b7 503d aaad 163e 8fbd 5abd
00000090: b633 d53d af74 26be 114d 51bd 4927 d23d
000000a0: c2a4 eabd 0f30 18be 1c74 ad3d 12ca 61be
000000b0: c2fa 2c3e f1b7 d23c b11c 0c3e 6ae1 003e
000000c0: 99e2 b83d eaca 933c 4bf7 67bc 2c90 993d
000000d0: b0e3 443e c708 603c f37a ed3d 98a0 faba
000000e0: bd51 083e 6c68 8ebd 1c9d ef3d b42d 283e
000000f0: 7f91 243d 7726 0d3e 9b48 52be e608 19be
00000100: 150f 30be db48 a0bd 8969 203e ba4c b43d
00000110: e2f8 e3bd 2094 2f3e cd65 93bd ae86 4dbd
00000120: eb60 a7bd 2967 0ebe 126b f0bb b756 f4bc
00000130: b86c fabd 8cb0 1fbe 5b4f d93d 724d 2dbe
00000140: 806f 82ba 37d3 f63d f45a 3dba be79 1fbe
00000150: ac74 1fbe dcf2 de3d c6bf 1f3d 77b1 613d
00000160: 953b d1bd a310 a8bc e2b9 d8bc 822b 13be
00000170: 6ca5 513c 733f b83d f6d9 1bbe b5ad ee3d
00000180: fc93 d6bc 5bb1 383e 788e 933d 65ad 9eb9
00000190: a21f a23c 08e4 edbd ffcf f13b 421a 3abd
000001a0: 2aa2 8e3c 6614 f63d 1976 b53c 66c0 dbbd
000001b0: 31cf 0abd bb72 263e eb88 ef3c b4fb dd3b
000001c0: 0e66 e2bd 72ce f53d 7eb4 e0bd 71d1 763d
000001d0: 4667 31be 5a10 dc3d 88b9 a03d d628 e43d
000001e0: b02c 36be ad60 08be dfe9 353e 72fe 533d
000001f0: bbce 2a3e 21a0 01be 12bc ca3d f469 843d
00000200: 325a 0b3e 6a22 3dbe c6c6 adbc 4616 bd3c
00000210: 2c1c adbb 371d 083e 1302 d3bd 6250 253e
00000220: 88ce 79bb 8206 ca3c 1854 0fbe 1222 933a
00000230: b572 833c 5c96 fbba 3dcf debb 5147 08bd
00000240: d4c1 733d 0959 efbd 309a 01be c8b4 1f3e
00000250: e0f1 0a3e 1b58 2dbe 0997 0a3e e695 4b3d
00000260: 688e 103d 1104 b6bd 9f4c aebd 88df 8b3d
00000270: 6f39 0d3e 8eeb 2a3d dfbf df3c 69c4 34be
00000280: 54b0 87bd 1693 0f3d 3f5f 9a3d 4842 da3d
00000290: 9b3d 05bd 08e1 4e3d eb22 b7bd b974 4dbe
000002a0: f99f afbd a85b ae3d 9c4a dc3d 22c2 be3b
000002b0: 38f1 cf3d f420 56be d04c 99bd 4c10 cb3c
000002c0: 7bad 0a3e e93e 0dbe fb8c 1e3d 6f3c 0c3e
000002d0: c6ee 2d3d 4010 16be fe7e ad3d e025 dfbd
000002e0: c90e 803e 5999 313d a3cc dbbd 509b 55be
000002f0: c430 03bd edcb 853d eb02 3fbd c5f5 1a3e
00000300: bf33 053e 2f19 213e df95 2abd 8f34 f9bb
00000310: 012c e33d 7bd1 023e 24a1 a13d 3e9f 053e
00000320: 7c2b c03c 1091 51bb 4cb5 003e 3245 98bd
00000330: 8258 cbbd 0bbb 0a3e 27a2 e8bd 5a97 adbd
00000340: a082 cf3d 423f 323d 631f 3cbe 5841 5dbe
00000350: c7ca 43bd 9b8c e43d f796 b03d ba59 29be
00000360: c079 1cbe ff85 d1bd e47a 1a3e 7245 6c3d
00000370: 57e0 19be f738 29be f95f 953d b9b1 1fbe
00000380: e845 06be 2175 0abd 91c3 2bbe 976e f73d
00000390: cce3 45bc 44aa 44be 06ca 253e ca42 31be
000003a0: 28c3 46bd 97a3 3ebe 1e75 643d 44e7 5ebd
000003b0: ef85 53bd c4bb ff3c 0a7a 6fbd 5b65 9f3a
000003c0: 96db 34bd 3c30 cabd 33bd 82bd 9684 fe3d
000003d0: b50e f8bd a7cd 4e3e 5759 bd3d 6115 5fbd
000003e0: 3bc5 4b3e 7be7 213e 1243 6dbd c328 213e
000003f0: 6334 84bd 8a77 db3d 6129 24be 8ee9 403e
0.14414874 0.14526533 0.06774303 0.15115333 0.06046189 0.17111886 -0.018562002 -0.13719541
-0.09403984 0.16673276 0.027681805 0.16681801 0.020362943 -0.18667658 0.07508561 0.13335423
0.17051779 0.15937686 -0.06879173 0.18178393 -0.05139549 0.0754556 -0.17864452 -0.10881335
-0.10941628 -0.0170238 0.16197293 0.15359591 -0.014544902 0.17834768 -0.17188765 0.07668851
-0.0391738 0.05095626 0.14714685 -0.053403433 0.10410254 -0.16255449 -0.051098887 0.10261399
-0.11457206 -0.14862083 0.08469412 -0.2204974 0.16892532 0.025722476 0.1368282 0.12585989
0.09027595 0.018041093 -0.01415808 0.07498202 0.19227481 0.013673968 0.11595716 -0.0019121347
0.1331243 -0.06953511 0.11699888 0.16423684 0.04017782 0.13784204 -0.2053551 -0.149448
-0.17193253 -0.07826396 0.15665258 0.08803697 -0.11131455 0.17146349 -0.07197151 -0.05017727
-0.081727825 -0.1390654 -0.0073369825 -0.029826505 -0.12227768 -0.15594691 0.10610839 -0.16924074
-0.0009951442 0.12052005 -0.0007223331 -0.15573785 -0.1557185 0.108861655 0.03900125 0.055100884
-0.102164425 -0.020515746 -0.026455823 -0.14372066 0.012795787 0.08996477 -0.15219864 0.11654226
-0.026193611 0.18036406 0.07204908 -0.00030265297 0.019790474 -0.11615759 0.0073795314 -0.045435198
0.01741131 0.120156094 0.02215104 -0.107300565 -0.033889 0.16254704 0.029240092 0.00677439
-0.11054622 0.12002267 -0.10971926 0.060258333 -0.17324552 0.10745306 0.07847887 0.11140601
-0.17790484 -0.13318129 0.17764996 0.05175633 0.16680424 -0.1265874 0.09899153 0.064655215
0.13608626 -0.18470159 -0.021212947 0.02308191 -0.0052828994 0.13292395 -0.1030313 0.16143945
-0.0038117487 0.024661306 -0.13996923 0.0011225364 0.016045908 -0.0019194591 -0.006799607 -0.033271138
0.05951102 -0.11686904 -0.12656474 0.15596306 0.1356883 -0.16928141 0.13534178 0.0497035
0.03529206 -0.08887494 -0.08510708 0.068297446 0.1379144 0.04172855 0.027313171 -0.1765305
-0.06625429 0.03505238 0.07537698 0.106571734 -0.032529455 0.050507575 -0.08942207 -0.20064057
-0.08575434 0.08513576 0.10756418 0.0058214823 0.10153431 -0.20911008 -0.07485354 0.024788044
0.1354274 -0.1379353 0.03870867 0.13694929 0.04246404 -0.14654636 0.084714875 -0.10895896
0.2501128 0.043359134 -0.10732391 -0.20860028 -0.03202893 0.065330364 -0.046633642 0.15132816
0.13008021 0.15732263 -0.041646834 -0.0076051424 0.110923775 0.12775223 0.07892063 0.13049027
0.023458235 -0.0031977333 0.1256916 -0.07435073 -0.09928991 0.13547914 -0.11359053 -0.08476134
0.101323366 0.04351736 -0.18371348 -0.21606958 -0.047800805 0.11159631 0.08622544 -0.16538134
-0.15280819 -0.10230636 0.15085942 0.057683416 -0.15026985 -0.16525637 0.07293696 -0.1559514
-0.13112605 -0.03380311 -0.16773821 0.1208164 -0.012078237 -0.19205576 0.16190347 -0.17310634
-0.04852596 -0.18617092 0.055775754 -0.05441977 -0.0516414 0.031217463 -0.058465995 0.0012160944
-0.044154726 -0.09872481 -0.06383743 0.124276325 -0.1211218 0.20195638 0.09245556 -0.054463748
0.19899456 0.15810959 -0.05792529 0.15738206 -0.064553045 0.1071616 -0.1603141 0.18839094

res_unit1.norm3.weight f4 [32]
00000000: 347f 713f a748 783f 5f49 8b3f 68fb 763f
00000010: c7bc 7e3f a09c 6a3f 718e 743f 3d49 833f
00000020: 8169 753f 3b5e 833f f38f 7b3f 3f44 853f
00000030: 3510 7c3f 895b 863f 3354 7c3f 8bf9 863f
00000040: 1f09 7b3f 05b2 7b3f 5761 843f 7be1 7f3f
00000050: ff78 883f 1358 7c3f 4c5c 7c3f 75d2 7d3f
00000060: d838 7c3f 5cca 7e3f 74cc 713f 93ec 823f
00000070: bbc9 7c3f ecfc 853f 7ab1 893f 8489 823f
0.9433472 0.9698586 1.0881766 0.96477365 0.995068 0.9164524 0.9552985 1.0256726
0.9586411 1.0263132 0.98266524 1.0411452 0.9846223 1.0496684 0.9856598 1.0544904
0.9806079 0.9831851 1.0342206 0.9995343 1.0661925 0.9857189 0.98578334 0.99149257
0.98524237 0.99527526 0.94452596 1.0228447 0.98745316 1.0467811 1.0757287 1.0198216

res_unit1.norm3.bias f4 [32]
00000000: 11de 7f3d 575d 1c3c 33c6 dabc b62e 523d
00000010: a3e3 513c 7bbb 0cbc 3478 963c 0c80 183c
00000020: 65c1 f9bc 7181 7c3c acc0 17bb 94ef 62bc
00000030: 62a1 eab9 3605 8f3b 464c 46bd 1616 3c3d
00000040: 9cb3 153d ec97 9a3c 6f71 c53c 6baf da3c
00000050: aeaf 523d c3d0 1cbc 0cd8 833c d3ea f839
00000060: 7a7d 46bd 2949 eeba d2af 4a3c 7b46 a93c
00000070: c0dd 98bc d5e2 993d acd6 3c3d bf1a c53c
0.06246764 0.009543738 -0.026705837 0.05131408 0.0128106205 -0.008589621 0.018367864 0.0093078725
-0.030487726 0.015411721 -0.0023155613 -0.013851065 -0.00044752198 0.004364635 -0.048412584 0.0459195
0.036548242 0.01887127 0.02410194 0.026694974 0.051437072 -0.009571257 0.01609423 0.00047477204
-0.048459508 -0.0018179762 0.01237102 0.02066349 -0.018660426 0.07513968 0.046103165 0.024060605

res_unit1.norm3.running_mean f4 [32]
00000000: c079 993e 4ba2 5f3e bcb3 43be 445d 0e3e
00000010: 9c43 053d ab1a ddbc b6b8 4fbd 09d2 6abd
00000020: f38d a03d f163 a7be 9383 82bd d20a 1abe
00000030: e442 6abb 3072 873c 33f0 883d eed1 18be
00000040: db92 043e 6753 283e a805 4abe 0f08 0f3c
00000050: efd9 913d bbe0 3dbe 35a1 143e 2658 2f3d
00000060: 724f b8bc a2c7 eb3d e59e da3d 7e10 28be
00000070: c54a 343d d756 22be 211c d7bd bab7 b53d
0.299757 0.21839254 -0.19111532 0.13902766 0.03253518 -0.026990255 -0.050713263 -0.05732921
0.07839575 -0.32693437 -0.06372752 -0.1504319 -0.0035745436 0.016533941 0.06686439 -0.14923832
0.12946646 0.16438065 -0.1972872 0.008729949 0.07121646 -0.18542759 0.1451462 0.042808674
-0.02249882 0.11512686 0.10674838 -0.16412541 0.04401662 -0.1585344 -0.10503412 0.08872934

res_unit1.norm3.running_var f4 [32]
00000000: 54ac a73e facb 223e 96f0 0d3e dcc7 2e3e
00000010: 98af c13d c385 5f3e d0e4 2c3e 4523 713e
00000020: aa77 4a3e 077d 5b3e 141f 083e 991c 0f3e
00000030: d1dc 053e e95e 3b3e f13a 3b3e f7e4 573e
00000040: 3730 513e a77b 503e 5b10 083e a9d0 833e
00000050: d041 0f3e 7218 143e 1e64 543e 9cda 0c3e
00000060: 8ee8 703e e403 0a3e ec67 e63d 0cee f73d
00000070: 616c da3d 309f 003e 7912 263e 8231 fb3d
0.32748663 0.15898123 0.13861308 0.17068428 0.0945732 0.2182837 0.1688416 0.2354861
0.1977221 0.21434413 0.13293105 0.13975753 0.13072516 0.18297924 0.18284203 0.21083437
0.20428549 0.2035967 0.13287489 0.25745133 0.13989949 0.1446245 0.20741317 0.13755268
0.23526213 0.13478047 0.1125029 0.12105951 0.10665203 0.12560725 0.16217984 0.12265302
