phishing/tabular_feature_extractor1.pth (torch, 88626 bytes, 41 tensors)

dense1.weight f4 [256, 25]
00000000: 34e9 ef3d f0aa 133d e6ff 4c3d 0f36 f93d
00000010: 8f03 89bd 62cf d0bc a667 a13d fe19 93bd
00000020: 0f9c a43d 6aa5 15be 942c 58be 4042 a1bc
00000030: 2a0f 2f3d 41f4 c1bd 9969 18be 0f06 e0bd
00000040: 3edd adbd 6d93 273d 4f21 2cbe 3fac c2bd
00000050: 98ac 47be 7ab7 4f3e 61be 35be caf2 39bc
00000060: 70ed 3c3e e261 13bd 7042 493d 29a0 1e3e
00000070: 35d3 1c3e 18ff b53d c1a9 1f3e ff04 093e
00000080: 9a0c 0fbe bbf3 38be c866 50be ec64 8f3d
00000090: e015 c6bd 62ad 23be 23ac a5bd 99fd 4a3d
000000a0: c05f 213d 93c7 2fbe bc3b adbd 164f 38be
000000b0: b194 00be 8f50 a3bd 1cb1 173e 72d5 cfbd
000000c0: 4106 7b3d 65c1 f7bd d9d1 14be b4e8 36be
000000d0: a265 ee3c c0f5 4a3e ca8b f93d bacc 07be
000000e0: 9ca4 a33d f694 7a3c 2d9f 9abd 2edf bebc
000000f0: 16f1 103e 2e8d ab3c 7ed7 bdbd e9fc 913d
00000100: c3f6 4fbc a2f3 0d3d 2ac5 05be 8c87 4ebe
00000110: a952 0e3e a365 333e c023 2e3d 4bfd d13d
00000120: d51b 943d 6edc 2f3e 8004 e9bc 5f3b d43d
00000130: d957 893d 3985 13bd 7272 f13c 3aec 683e
00000140: 4976 533d 94b6 43be b45a 3fbe 4a75 4bbe
00000150: 58df 633c 9655 e4bd e183 bd3b 4123 eabc
00000160: ce1c 123e 8ff0 b2bd 198e 65bd 2963 8ebd
00000170: c72a ebbd f86b 02be dd7c 4f3e 40fc dcbd
00000180: 443e 8e3c 1664 84bd 9dd5 113e 17fc 763d
00000190: 9c1b 1cbe ee93 073e f041 78bd 130e 1ebb
000001a0: 7c8b edbd f1b4 6c3e 9d59 b1be 764f 40be
000001b0: 2032 ecbc c026 4f3c 3e97 8bbd a821 ca3d
000001c0: b9fa 2a3e e097 ddbc d508 3dbe 7ac4 26bd
000001d0: 2596 9d3d 8844 0a3c e07b d63c 5a0d 9dbc
000001e0: 5ce8 753d d759 143d 2d60 72bd 5aa3 8a3d
000001f0: 5c02 05be 2ba1 f43c 6ae4 063e 4850 dc3c
00000200: 63b7 e23d c2c9 533c e9dd febc b6a4 31be
00000210: b4b2 31be c058 a93d e679 2bbe ddb4 f2bd
00000220: cd1c 38bd 78c1 17be fc0e d53d a2c3 94bd
00000230: ce0e 8b3d d2f8 263a 7a5e 7cbe c511 b8bd
00000240: 5f5b dabd 355d 08be b3f2 10be 6933 543d
00000250: 1528 11be aabe b43d d069 a33d 3026 1d3e
00000260: 8df4 ca3d 27d1 c2bd 145d afbd eefc 2fbc
00000270: 253e 803e 0383 353e 559b c0bd 9d3e b8bd
00000280: 3966 d9bc eec9 67bd 6885 c83d 458a 363e
00000290: 3161 1c3d 0983 023e 60e5 83bc dbc2 4f3e
000002a0: dcaa 42be 31e1 873d 8ab3 2c3d 047c 3cbd
000002b0: 4f2e 443e 208b ccbd ab23 87bc 062e 803b
000002c0: 2606 cd3c 8649 cbbb f219 a3bd 1a5f a13d
000002d0: f136 e9bd 6fac 923e 42da 3b3e b7a8 c2bc
000002e0: 4f7e 51bd ccbf f2bc 78c2 0abd c8cb 41be
000002f0: a2f4 91b9 780b 9abd fbaf 4ebd 2b5e 1abd
00000300: 0fb6 88bd 039e 8f3d f972 ddbd 7bef bf3d
00000310: e418 133e db7a c83d e70b 9cbc 7679 51bd
00000320: 0469 9bbd 22fc 85bc be6a 443e 9a7d bebd
00000330: 2c95 48bc 1b5f dfbd 643b c93d 708d 36be
00000340: 0b05 38be 6b32 153d bcf5 09be 76ef a73c
00000350: bc2a e5bc b683 debd efe0 3bbc 2e8f 443e
00000360: 77e2 6a3d 71fe e83c e463 67be b93f 28bd
00000370: 7d4c 74be 7174 343d d297 59ba 295a a4bc
00000380: e3de 4f3e 0fe5 38be 27f0 24bd b449 0dbe
00000390: 9427 053e 659f 48be aa88 853d d602 213c
000003a0: 9c4c 0c3e beb4 193d fb60 b2bc cd2c 2abe
000003b0: 2592 3ebe 78a2 b23d c030 373e b8b9 083e
000003c0: 838a 663e 5226 41bd 3060 d6bd 7e90 6f3c
000003d0: 2ee3 bd3c 1e90 57be d7b2 01be a637 2ebe
000003e0: f3aa fabd f225 303c 5945 313c dcfb 88bd
000003f0: 4c59 42bd fada 5e3e 68ab dcbd 5a08 0b3e
0.11714402 0.03605169 0.05004873 0.12168514 -0.06690132 -0.025489513 0.078810975 -0.07182692
0.08037578 -0.14613882 -0.21110755 -0.01968491 0.04273907 -0.09470416 -0.14884032 -0.109386556
-0.08489464 0.04091208 -0.16809581 -0.095055096 -0.19499433 0.20284835 -0.17748405 -0.011349389
0.1844995 -0.03598202 0.049135625 0.15490784 0.15314944 0.08886546 0.155921 0.13380812
-0.13969651 -0.18061726 -0.20351708 0.07001671 -0.09672141 -0.15984109 -0.08089473 0.049558256
0.039397955 -0.17165975 -0.08458659 -0.17998919 -0.12556721 -0.0797435 0.14813656 -0.10148133
0.06128526 -0.12097434 -0.14533176 -0.17862207 0.029101197 0.19820309 0.12184866 -0.1326169
0.07990381 0.015294304 -0.075498916 -0.02329978 0.14154467 0.020941343 -0.092696175 0.07128317
-0.01269311 0.034656174 -0.13063493 -0.20168895 0.1389872 0.1751924 0.042514563 0.1025339
0.07231871 0.17173931 -0.028444529 0.10362887 0.06706209 -0.036015723 0.029473517 0.22746363
0.051626477 -0.19112617 -0.18686944 -0.19868961 0.01390823 -0.11149137 0.0057835435 -0.028581263
0.142688 -0.08737289 -0.056043718 -0.06952507 -0.114827685 -0.127365 0.20262475 -0.107903
0.017363675 -0.064644024 0.14241643 0.060299005 -0.15244907 0.13240024 -0.060609758 -0.0024117276
-0.1159887 0.23115899 -0.34638682 -0.18780312 -0.028832495 0.012643516 -0.068159565 0.09869701
0.16697206 -0.027049959 -0.184604 -0.04071472 0.076946534 0.008439191 0.026182115 -0.019171406
0.06003605 0.03621849 -0.05917375 0.06769438 -0.12989181 0.029862007 0.1317307 0.02689375
0.110701345 0.012926521 -0.031111674 -0.17347988 -0.17353326 0.08268881 -0.1674572 -0.11850903
-0.04494934 -0.14819896 0.10403249 -0.072638765 0.06789933 0.00063694746 -0.24645415 -0.08987764
-0.10661959 -0.13316806 -0.14155082 0.05180684 -0.14175446 0.08825429 0.079791665 0.15346599
0.099099256 -0.09512549 -0.08562675 -0.0107414555 0.25047413 0.17725758 -0.09404627 -0.089963175
-0.026538001 -0.05658906 0.0979107 0.17826183 0.038178626 0.12745298 -0.016100585 0.20289175
-0.1901049 0.06634749 0.04216341 -0.046016708 0.1915829 -0.099874735 -0.0164965 0.0039117364
0.025027346 -0.006203833 -0.07963933 0.07879467 -0.11387432 0.2864718 0.18344977 -0.02376209
-0.051145848 -0.029632472 -0.033876866 -0.18925393 -0.0002783882 -0.07521719 -0.050460797 -0.03768746
-0.0667535 0.0701256 -0.10812945 0.09371849 0.14364964 0.09789058 -0.019048644 -0.051141225
-0.075883895 -0.016355578 0.19181344 -0.093013 -0.012242597 -0.10906812 0.09825781 -0.17827392
-0.17970674 0.036425035 -0.13472646 0.020499926 -0.027974479 -0.108649656 -0.011467203 0.19195244
0.05734488 0.02844164 -0.22596699 -0.041076396 -0.23857303 0.04405636 -0.0008300516 -0.020062523
0.20299868 -0.18056129 -0.04026809 -0.13797647 0.13003379 -0.19592054 0.06520207 0.009827336
0.13701099 0.037525885 -0.02177476 -0.16618653 -0.18610437 0.08722395 0.1788969 0.13352096
0.22513776 -0.047155686 -0.10467565 0.014621852 0.023179617 -0.2105107 -0.12665878 -0.17013416
-0.12239637 0.010751234 0.010819756 -0.06688663 -0.04744844 0.2176322 -0.10774881 0.13577405

dense1.bias f4 [256]
00000000: f637 203e 1b8c b63d 0b57 f63d 668d c3bd
00000010: 05e5 bc3d 4fe2 f2bd 0db2 423e b3e9 3c3e
00000020: 9853 1f3e 0749 21be eb8e 123e 4963 763e
00000030: 3a2b 12be aa49 c83d c31d 35be b2a4 cdbd
00000040: 8848 6dbd be1f 85bd dc82 f8bd 0c26 c63d
00000050: a33f 12bc 392e 473d c6cf 553e bd96 15bd
00000060: a082 2b3e 75db b8bb 65d0 59be 4d4b e8bd
00000070: 6537 a2bd fa7f d23d 3815 3e3e e737 3a3e
00000080: d900 24be 0514 443e 12ff b9bd 9d4b 483e
00000090: 0c2e 1ebe 6bf3 9dbd 349a 0dbe eedd 5ebc
000000a0: 4cd8 903d e357 dfbd 1a7e f33d e889 153e
000000b0: c29d bf3d d94d aebc f4d8 823e cb2c 063e
000000c0: c0e5 7fbd 7ae2 3f3d 1519 52be 13fa a93d
000000d0: f2d7 d3bd fc16 683e fb2f 3a3e 2599 8ebd
000000e0: af29 20be 3fd2 f0bc 17eb 2fbd 0185 4e3e
000000f0: c389 b7bc 4544 57be 6b00 0cbc dfe9 3cbe
00000100: 0e67 3fbe 3e07 20be 7811 c73d 188a 983d
00000110: d0ec 513e 7941 eebc ecad 3ebe 8e5e b1bd
00000120: 6870 753e 3ecf 323e a2ff 03be e191 193e
00000130: 4270 48be b846 053d 080c f639 0bd0 933c
00000140: e2d4 2c3e 8c43 813b aa5b 77bd c736 f03d
00000150: 23ff a63d 17b0 1a3d 002a 26be cb40 21bd
00000160: 306e 503e c40c a1ba e432 dabd ccc8 423e
00000170: f8a1 283c 5c43 63be 168f 39be dce6 51be
00000180: 9ff3 3abe c829 82be 6569 bbbc c94b 283e
00000190: 7131 02be 49ea 41be 8717 b93d bd62 b13d
000001a0: 8d7f 033e b6ab 573e 8609 e7bc 9968 1bbd
000001b0: 2103 59be 54fd 4ebe ff81 c5bb ac89 e03d
000001c0: d860 2bbe 4be3 a53c 86c1 3c3e 7758 873d
000001d0: 5310 2d3e bc1d 66bd 2b07 06be 9e4c 5abe
000001e0: 3992 28be e04d 94bd 5745 8ebd e154 53bd
000001f0: 5d62 4abe 9c7b 13bc bb42 8ebc 8d38 29be
00000200: e1fd 233e e473 733d 251e 00be 327a 25be
00000210: 9155 f93a 12df 28be 661c 293e 2569 0ebe
00000220: 004a 5c3d e4d2 223b a637 08be 26da cb3c
00000230: a477 d5bd 05d8 94bd d0d7 20bd a0bc 113d
00000240: 82ce 7abd 3d44 22bc 2d13 293e dd04 21be
00000250: 4523 d03d ab9f 483e 0f5a bebd a80b e73d
00000260: 39b3 943e 77ad 85bd ade1 7fbe a142 49be
00000270: 7d5c 39be 44a3 d7bd 42b6 ffbd 0c58 153e
00000280: 7e27 213e 0879 0c3e 3f10 0b3e 2982 0f3e
00000290: 1813 f8bc 7fa2 263d 15f9 063e 7381 6dbc
000002a0: f88d 0bbe 6193 803d 20e2 703e d62e 12be
000002b0: bc51 abbd efb0 193e c2f1 e3bd 022c c0bd
000002c0: d07c 803b e9f1 a83c ee21 c33d 8a19 47bd
000002d0: b6a3 3abc 343d b3bc 46f1 4fbe ee3f 2fbc
000002e0: 247e 553c a884 133e 73f4 043d 34c8 f53d
000002f0: c72f 243d c92b c53d 5ffb 1dbe 3490 263e
00000300: b64c 943d ec6b b93d 1533 523e 0348 0e3d
00000310: 70cf b6bd cb84 103d b7df e4bc c6f8 e2bd
00000320: ab3d 9ebd 5d0d 233e 6b4a c33d 4ccc 04bd
00000330: 67d5 173e 9ef7 7f3d 24be bf3d f05b e3bd
00000340: 7473 603c fde9 053e f96c c1bd ac27 083c
00000350: 869b 1c3e 8df2 ef3d f92f 143e 0b49 0abe
00000360: e1b9 df3d ebc1 2b3b 151e 353e 1117 333e
00000370: 268a ba3d 186a 5fbe d67a 4c3d 8cf9 3f3e
00000380: 6159 8abe ef56 5d3d 5dbb 29be 304c b93d
00000390: 1e25 2ebe d678 a5bd 1fb3 da3d df62 2cbb
000003a0: 22b0 023e c10d 8fbd d5ba ee3d 93be bc3d
000003b0: b311 2c3e 7e93 f5bb e111 04be a203 3e3d
000003c0: 365b e33d 0621 77be b117 0abe e53b e03c
000003d0: 2489 0abe 8257 33be 7f9d 9dbc e070 1cbe
000003e0: 5b33 4cbd d60b 6b3d ea07 4e3e 472c 0bbd
000003f0: 2b50 87be aeed 44be e1df 5d3c 567c d53d
0.15646347 0.08913442 0.12028321 -0.09548454 0.092233695 -0.11859571 0.19013233 0.18448524
0.15559232 -0.15750514 0.14312331 0.24061312 -0.14274302 0.09779675 -0.17687134 -0.10041179
-0.0579305 -0.06500195 -0.121343344 0.096752256 -0.008926305 0.048628066 0.2088004 -0.03652071
0.16749048 -0.0056413957 -0.21270902 -0.113424875 -0.07920722 0.10278316 0.18562782 0.18185388
-0.16015948 0.19148262 -0.09081854 0.19560094 -0.15447253 -0.07712444 -0.13828355 -0.013602717
0.07072505 -0.10905435 0.11889286 0.14603388 0.09356262 -0.021277355 0.25556147 0.13103025
-0.062474966 0.046846844 -0.2051738 0.08299651 -0.10343923 0.22665018 0.18182366 -0.06962804
-0.15640901 -0.029397128 -0.04294881 0.20167924 -0.022404557 -0.21022137 -0.0085450215 -0.1844859
-0.18691656 -0.15627763 0.09720129 0.07448214 0.20500493 -0.029083954 -0.18621033 -0.08660613
0.23968661 0.17461869 -0.12890485 0.14997055 -0.19574073 0.032538146 0.0004692974 0.018043539
0.16878083 0.00394482 -0.060390152 0.11729198 0.08154132 0.03776559 -0.16226959 -0.039368432
0.20354533 -0.001228713 -0.10654238 0.1902191 0.010292523 -0.22193664 -0.18120989 -0.20498222
-0.18256997 -0.25422502 -0.022877404 0.1643516 -0.12714173 -0.18937029 0.090376906 0.08661411
0.12841626 0.21061596 -0.028202783 -0.03794155 -0.211926 -0.20213825 -0.0060274596 0.10963759
-0.16736162 0.020249983 0.18433198 0.0660867 0.16900758 -0.0561807 -0.13088672 -0.2131829
-0.1646203 -0.07241416 -0.06946819 -0.05159462 -0.19764085 -0.009001639 -0.017365804 -0.16525479
0.16014816 0.059436694 -0.12511499 -0.16159895 0.0019022693 -0.16491345 0.1651474 -0.13907297
0.05378151 0.002484494 -0.13302478 0.024884295 -0.1042321 -0.07267765 -0.039268315 0.035580277
-0.061232097 -0.009903965 0.16511221 -0.15724511 0.10162977 0.19592158 -0.09294521 0.1128152
0.29042986 -0.065272264 -0.24988432 -0.19654323 -0.18101688 -0.10529187 -0.12485935 0.14584368
0.15737721 0.13718045 0.13580416 0.14014496 -0.030282542 0.040682312 0.13180955 -0.014496195
-0.13628376 0.0627811 0.2352376 -0.14275679 -0.08365199 0.15008901 -0.11130096 -0.09383394
0.003921129 0.020623164 0.09527956 -0.04860834 -0.011391571 -0.02187977 -0.20306882 -0.010696394
0.013030563 0.14406073 0.032459687 0.12001076 0.040084627 0.09627492 -0.15427922 0.16265947
0.07241194 0.090537876 0.20527299 0.034736644 -0.08926284 0.03528289 -0.027938707 -0.11082606
-0.07726606 0.15923066 0.095356785 -0.032421395 0.148275 0.062492006 0.09362438 -0.1110152
0.013699401 0.1307754 -0.09444613 0.00831024 0.15293702 0.11716185 0.14471425 -0.13504426
0.109241255 0.0026208113 0.17687257 0.17489268 0.09108381 -0.21817815 0.049921833 0.18747538
-0.27021316 0.054037984 -0.1657538 0.09047735 -0.17006347 -0.08079688 0.10678696 -0.002630405
0.12762502 -0.06985045 0.11656729 0.09216037 0.16803627 -0.007494389 -0.12897445 0.046390183
0.111013815 -0.24133691 -0.134856 0.02737231 -0.13528877 -0.1751385 -0.019240139 -0.15277433
-0.049853664 0.057384335 0.20120206 -0.033977773 -0.2642835 -0.19231293 0.013542146 0.10424106

conv_initial.weight f4 [32, 1, 5]
00000000: 7466 583e 0cae 23be fb5b 8f3e afa0 d03e
00000010: 2ed5 303e 792e 98be 4097 bdbd 41ac 9bbe
00000020: f236 fdbd 7201 a7be 8b0e 4ebe e7c5 e03e
00000030: fde9 7f3e f766 b5be 4e19 1abd d06b 93be
00000040: 5359 a2be 60da 65be f080 653c 9ced dcbd
00000050: 0b54 62be 3d98 c0be ab38 c1be 51c7 cebe
00000060: 44f7 38be a240 193e a415 4a3e 1309 c23c
00000070: c263 b4be 8fee c13e 517f c63c c043 babe
00000080: 919e 383d 0e3f ce3e dd1c afbc 8d8b 23be
00000090: 8f72 9ebe c3b6 c7be 09be bfbe 2d19 db3d
000000a0: 28a9 99be af57 e63d 77f1 e0be 4023 b9be
000000b0: f4bf fcbc 48f6 81be 5907 42be a01b 26be
000000c0: d129 0cbe ce2f 9c3e cdfc ae3e 803a 68bd
000000d0: e21a 35be 24bf c1be e6d9 a8be 2612 91be
000000e0: 3064 dd3e f7b8 323d c4d1 b13e 8176 3cbe
000000f0: 977a 05bd 4507 2d3e 8889 c2be f89a 66be
00000100: 54da ccbd b1a6 03bd 25aa f93e 5d38 5abe
00000110: 2355 68bd 4a1e b13e 940d c8be a58b a93d
00000120: 9442 8f3e b6d9 3b3e e05a f4be e9ef 2cbe
00000130: f2a5 b53e 000a 703d 0756 b1be 46c0 893e
00000140: fad1 7dbd 9b1a 42be c4fb a43e 5b9f 95be
00000150: 8705 4b3d e5fc 823e 8b92 8ebe 1965 a1bd
00000160: 38a7 3cbe 3700 84be 7d30 81bd e555 88be
00000170: 6b3a 8fbe bece 543e 90c1 063e bc88 e8be
00000180: 8e13 74be ff41 aebe 2355 af3e 9a26 8ebe
00000190: 8458 8f3e 0121 4cbe 3e0c 063e 243f 843e
000001a0: a06e 8fbd 1411 703e 4974 89be 0ae8 8c3c
000001b0: 3d28 873e fdaf 93be 2465 d63e fa7f edbd
000001c0: 3b88 adbe 9d31 1cbe 6bfa 43be 700f 8dbe
000001d0: bd0b 45bc ba11 423e c011 d0be 6941 8bbd
000001e0: ff75 96be b1d3 703e 243f a13e a4b7 6c3d
000001f0: eb2d e53e 8180 47be 6feb 953e 5be8 02be
00000200: 10dc f23d ebc8 13be dcff 143d 0561 b1be
00000210: 27d8 ffbb a629 3e3d 491a 87be ec42 9a3e
00000220: 0dfd 653e e95b 763e ab4c adbe 0ccf 953e
00000230: 9be7 043e a154 dc3c d092 44be 543a cd3e
00000240: 0f88 4bbe 68d2 a7be 8807 d43e ee9b 42be
00000250: 8ed4 adbe 8a77 4abd 4049 2ebd df25 dc3e
00000260: 83ef b7be 5af1 c3be fa28 c7bd 2309 b23e
00000270: bf73 8dbc 28ac 863e 1ceb d73e b888 edbe
0.21132833 -0.15984362 0.27999863 0.40747592 0.17268822 -0.29722956 -0.09257364 -0.30404857
-0.123639956 -0.3261829 -0.20122735 0.43900988 0.24991603 -0.35430118 -0.03762179 -0.28793192
-0.31708774 -0.22446585 0.014007792 -0.10787508 -0.22102372 -0.3761615 -0.37738547 -0.4038644
-0.18063074 0.14966062 0.19734818 0.023685968 -0.3523236 0.37877318 0.024230631 -0.36379814
0.045073096 0.40282482 -0.021376068 -0.15971203 -0.30946776 -0.39006624 -0.37449673 0.10698161
-0.30011868 0.11247193 -0.43934223 -0.36159706 -0.03085325 -0.2538321 -0.18948115 -0.16221476
-0.13687827 0.30505222 0.34177247 -0.056696415 -0.17686036 -0.3784114 -0.32978743 -0.2833416
0.432405 0.043633427 0.3473035 -0.1840458 -0.032587614 0.16897304 -0.37995553 -0.22520053
-0.1000258 -0.03214139 0.48762622 -0.21310563 -0.056721818 0.3459342 -0.3907286 0.08278588
0.27980483 0.18344769 -0.47725582 -0.16888393 0.3547817 0.058603287 -0.34635946 0.26904505
-0.061967827 -0.18955462 0.32223332 -0.2922314 0.04956582 0.25583568 -0.27846178 -0.07880611
-0.18423164 -0.25781414 -0.063080765 -0.26628032 -0.27974257 0.20781991 0.13159776 -0.4541682
-0.23835585 -0.34034726 0.34244642 -0.27763826 0.2799722 -0.19934465 0.13090608 0.25829422
-0.07003522 0.23444015 -0.2684653 0.017200489 0.26397887 -0.28845206 0.4187404 -0.11596675
-0.33892998 -0.15253301 -0.19138496 -0.2755084 -0.012026724 0.18952075 -0.40638542 -0.06799585
-0.293869 0.23518254 0.31493485 0.05779232 0.44761595 -0.19482614 0.29281184 -0.12783949
0.1185838 -0.14432113 0.03637682 -0.34644333 -0.00780775 0.046426438 -0.2638724 0.30129182
0.22459812 0.24058498 -0.33847556 0.29259527 0.12978975 0.026895823 -0.1919663 0.40083563
-0.19876121 -0.32777715 0.41411996 -0.19004795 -0.3395123 -0.049430408 -0.042550325 0.42997643
-0.3592492 -0.38270074 -0.097246125 0.34772596 -0.017267106 0.2630322 0.42171562 -0.4639337

conv_initial.bias f4 [32]
00000000: 5198 54be a004 babd b660 04be 4cf6 883b
00000010: dfe2 6bbe d923 6dbe 5080 81be 9084 6b3e
00000020: 31c5 6f3e 1b3a e2be 0587 21be e384 9c3e
00000030: 7068 bb3e f1d7 013d f874 983e 03d7 5c3d
00000040: ae93 adbd d4af 0d3e 7943 df3e 922d 95be
00000050: ac42 b6be 4d86 bd3e e2f0 b9be 616f db3e
00000060: 4c09 84be 2049 00be 1a43 a13d c48b 593d
00000070: 7b1a 6f3d 5b0d e7be 345e d23e d02f 94be
-0.20761229 -0.090829134 -0.12927517 0.0041797515 -0.23035763 -0.23158206 -0.25293207 0.22999787
0.23415066 -0.44184956 -0.15774162 0.30570135 0.36603117 0.03170008 0.2977674 0.05391599
-0.08475433 0.13836604 0.43606165 -0.2913633 -0.35597742 0.37016526 -0.36316592 0.42858413
-0.25788343 -0.12527895 0.07874127 0.053111807 0.058374863 -0.45127377 0.41087496 -0.28942728

norm_initial.weight f4 [32]
00000000: ad17 7d3f 9d89 823f d169 823f 4afb 763f
00000010: 0f1c 833f 00ee 7e3f 7a1e 803f 761a 863f
00000020: befe 733f 5a0e 7d3f d419 883f cbd3 803f
00000030: 9e0c 823f e699 793f 7627 873f 2716 7b3f
00000040: ee41 833f b66d 843f 76fc 793f 22de 773f
00000050: 7144 7a3f 75cd 813f 855a 833f b3d1 7f3f
00000060: 1a9b 843f 3854 7c3f e4af 7f3f f8b3 7a3f
00000070: 3d5b 873f 6a62 763f e2da 813f e22a 853f
0.9886425 1.0198246 1.0188543 0.96477187 1.0242938 0.9958191 1.0009301 1.0476825
0.9531058 0.98850024 1.0632882 1.0064634 1.01601 0.97500455 1.0558918 0.98080677
1.0254495 1.0345981 0.9765085 0.9682332 0.97760683 1.0140826 1.0261999 0.9992935
1.0359833 0.9856601 0.9987776 0.9793086 1.0574719 0.9624392 1.0144923 1.0403712

norm_initial.bias f4 [32]
00000000: 6c37 e13c cd33 ac3c a47c 973c b0da c13b
00000010: 1841 eb3b 9a03 a93c b0eb 3bbd e705 95bb
00000020: 48d5 003c 2832 0dbd 03ae a53d bdbf 913c
00000030: f1f7 2a3d 14a1 2e3d 182f 863d c466 a1bd
00000040: c694 bb3c b14d e23d b8ae 0ebd b046 20bc
00000050: ab2c 11bd 8aef c43c 11cb b33c c8d8 f53c
00000060: dbb0 363c cc27 1abd f139 813a 37cd 053c
00000070: 2b48 3c3c 3b7e e5bc e8d5 993d be8d 02bc
0.027492248 0.021020794 0.01849205 0.005915962 0.0071793906 0.0206316 -0.045879066 -0.0045478228
0.00786335 -0.03447166 0.08089831 0.017791623 0.04174036 0.042634085 0.06551951 -0.07880929
0.02289809 0.11049975 -0.034834594 -0.009782478 -0.03544299 0.024040002 0.021947416 0.030010596
0.011150564 -0.03763561 0.0009859187 0.008166603 0.011491816 -0.028014293 0.075115025 -0.007968364

res_unit1.pointwise1.weight f4 [32, 32, 1]
00000000: 0b58 1bbe 2b9e e13a 909c 133e dc3c 61be
00000010: acd9 dbbd c3bd 223e 5fb1 e3bd 57d5 85bd
00000020: ee70 493d a55c 8bbc 6ad6 0ebe 043c 7e3d
00000030: 3123 08bd 962a be3c fafc 83bc 4b72 59bd
00000040: aaff 4cbb d407 05be 657a 01be fd44 543d
00000050: fabe 32bd f31f b33c b65b db3d 2660 15be
00000060: 5d3c 98bd d568 3a3d 9711 d8bc 2bfe 14bd
00000070: b40b 30be 7616 26be 4b5c 0ebe 3c5d d6bd
00000080: 9d27 32bd 82d1 febc ce62 683d 0c7d ef3d
00000090: 908e 3c3c c120 23bd 13ea 11be 7f30 03be
000000a0: 96a5 2b3d fb49 dfbd 8545 ba3c 6203 e6bc
000000b0: 1db9 ca3b bb30 983d 7afe 3fbe 8f95 12bd
000000c0: 5f30 9e3d a748 c23c 82b7 1bbe 8c19 0dbe
000000d0: 8cae c0bd 81aa 17be 387a 5dbd 553d 20bd
000000e0: 44df 7abd 287f 1fbc 1686 1d3e 0762 14be
000000f0: 275a 91bc 8f02 503d 6e26 d83d a5b7 11be
00000100: d0d1 8cbd aad1 d13c 54ef 2abe 25cb ebbc
00000110: 5a3d e2bc a324 1a3e 4567 10be c330 a0bd
00000120: 1489 0e3e 9df4 8a3c dfda 50bd b6ce d7bd
00000130: c906 c7bd acf8 2c3e 4938 6ebb c5b5 683d
00000140: 95e9 243e 706c 00be 9c79 b6bd 2686 16be
00000150: 70c2 2fbe da49 113e c32c f73d 2090 063e
00000160: 1aa9 fd3d 75d3 2ebe d893 2b3e 9f7f 81bd
00000170: e0b3 043e 1e80 153d 9c79 59bd 021f 95bd
00000180: 09f3 043e f1ce 263e 9bd1 0a3e 5abe 393d
00000190: 73a8 d43d 4eb6 dc3c 7550 00be ae9e 233e
000001a0: 7804 0dbe bd0a 28be d0e8 9abd 4b5b 013d
000001b0: 72d7 113e 6b48 703d 90c0 16bd 6c27 563d
000001c0: 9708 9f3d 9aad 11be 2cb1 aebc 8b4a 1c3e
000001d0: 9ea2 a43d 4355 42be 1fee 0fbe 71b7 113e
000001e0: 7444 213d f5be e23d 4d47 94bd cff6 8cbd
000001f0: 7209 133d bed0 043e 802c d83d e078 49bc
00000200: 06be 0fbe ec12 083e 5ebc 2c3e 2aef 033e
00000210: d4c5 38be 3c71 06be 6c86 06bc c4fe 69be
00000220: 1f94 a0bb 966a 983d b810 15bd 082a c9bd
00000230: 558b 333d e455 0cbe 2c6c 723e dfe7 22be
00000240: ff00 e4bd c78f 92bc 098d 863c 9a51 df3d
00000250: a2a6 b03d dabb d13d 178e fbbd 55fe 8e3d
00000260: 1e4c d93c ab92 cdbb 36df 103d 53e9 b33d
00000270: 0865 5bbe 0051 c93b 976c 9abd e9be 20bd
00000280: e647 95bd ba26 e63d 6973 62bd 57c3 083e
00000290: 8cfa 293c fa61 1ebc e6e9 2cbe 48de f0bc
000002a0: e032 3a3d 904b ea3d e304 ac3d 981c 06be
000002b0: 7935 ac3d ac20 d53d 8f24 aa3d 460c cfbd
000002c0: 29c6 123e e3ed abbd 5a75 113e 5f0b 6cbd
000002d0: ad28 74bd 387b 5dbd 5b33 f6bc 7ec6 c4bd
000002e0: f2d9 10be 4586 1c3e 9693 923c c417 d8bd
000002f0: 2dd3 053b 480c ea3d 9e06 783c 0138 68bd
00000300: f153 2abe 973c 243d deaa e53d a08b 9e3d
00000310: 485a ccbd 4566 113e d434 1d3e aeb0 053e
00000320: b4e4 c3bd 224c debc 42cf 933d 8b31 66bd
00000330: 0208 0d3e 7282 68bd 35f6 0abe a610 b43c
00000340: bf6c 64be 2987 45be fada 48bd d632 07bd
00000350: 44ac 0abe fe0c 93bd b87a 03be 75e9 fabd
00000360: 139f bd3d bdd0 afbd 9978 0e3e d009 48bd
00000370: 6afb 1c3e 51b4 05be 6ff8 c83d fa27 42bc
00000380: 81cd 193e 4b14 b739 1677 a33d 43ac fe3d
00000390: f678 343d ed6e 303e 076c 48bd db2e 41be
000003a0: 47ea 17be 6c63 bc3d 00b1 7cbd aebb db3d
000003b0: 5391 5abe e0e2 e3bd 7706 9cbd c6f9 a53c
000003c0: 18de 65bc c70f 893d a383 053c cc78 34bd
000003d0: 41b9 4d3d e6bc ec3d 8492 66bc eb5e 0ebe
000003e0: 33f2 163e 7b37 8c3d 1f05 013e e15a 3a3c
000003f0: b1f1 16bd 54aa 2fbe f790 debd ef33 0fbe
-0.15170304 0.0017213275 0.14415193 -0.21995872 -0.10734877 0.15892701 -0.11117815 -0.06534832
0.049179964 -0.01701195 -0.1394898 0.062068954 -0.033236686 0.023213666 -0.01611184 -0.053087514
-0.0031280317 -0.12991267 -0.12644346 0.051823605 -0.04363916 0.02186582 0.10710852 -0.14587459
-0.074333884 0.045510132 -0.026375575 -0.036375206 -0.17191964 -0.16219506 -0.13902394 -0.10467002
-0.04349481 -0.03110576 0.056734852 0.11693773 0.011508599 -0.03982616 -0.14249448 -0.12811469
0.041905962 -0.109027825 0.022738228 -0.028077785 0.006186618 0.074311696 -0.18749419 -0.03578716
0.0772407 0.023716284 -0.15206721 -0.13779277 -0.09408292 -0.14811136 -0.054071635 -0.03912099
-0.06124808 -0.009734906 0.15383181 -0.1449052 -0.017743183 0.05078369 0.10554205 -0.14230211
-0.06875956 0.02561267 -0.16692859 -0.02878339 -0.027617145 0.15053038 -0.14101894 -0.078218006
0.13919479 0.016962344 -0.05098998 -0.10537474 -0.09718091 0.16891736 -0.0036349467 0.056813974
0.1610473 -0.12541366 -0.08909914 -0.14699611 -0.17164016 0.14188328 0.120690845 0.13140917
0.12385769 -0.17072852 0.16755617 -0.0632317 0.12959242 0.036499135 -0.05309449 -0.07281305
0.12983336 0.1628988 0.1355652 0.04534755 0.10383692 0.026942398 -0.12530692 0.159785
-0.13771236 -0.16410346 -0.07563937 0.031581204 0.14242342 0.058662813 -0.036804736 0.05228369
0.0776531 -0.1422638 -0.021324717 0.15262811 0.08038829 -0.18977837 -0.1405568 0.14230134
0.039371923 0.110715784 -0.07240162 -0.068830125 0.03589768 0.12970254 0.10555363 -0.012296885
-0.14037332 0.13288468 0.16868731 0.12884203 -0.18044215 -0.13129133 -0.00821076 -0.22851092
-0.00490047 0.07442205 -0.036392897 -0.0982247 0.04383405 -0.1370464 0.23674077 -0.15908764
-0.111330025 -0.017890824 0.016424673 0.10904236 0.08625533 0.10240908 -0.12282961 0.06982104
0.026525553 -0.0062735877 0.03536912 0.087847374 -0.21425259 0.006143689 -0.07540243 -0.039244566
-0.07289104 0.11237855 -0.055285845 0.13355766 0.010374676 -0.009666914 -0.168861 -0.029402867
0.045458674 0.11440194 0.083993696 -0.13096845 0.084086366 0.10406622 0.08307754 -0.10109763
0.14333405 -0.08394983 0.14204922 -0.05762803 -0.059609104 -0.05407259 -0.030053785 -0.09608172
-0.1414564 0.15285595 0.01789264 -0.10551408 0.002042006 0.11428124 0.015138296 -0.056694034
-0.16633584 0.040096845 0.11214231 0.07741475 -0.09978157 0.14199169 0.15352184 0.13055679
-0.09565106 -0.027135912 0.07217266 -0.05619959 0.13772586 -0.056765027 -0.13570483 0.021980595
-0.22307108 -0.19289841 -0.049036957 -0.033007465 -0.13542277 -0.071802124 -0.12839782 -0.1225156
0.092588566 -0.085847355 0.13913192 -0.048837483 0.15330282 -0.13057067 0.0981301 -0.0118503515
0.150198 0.000349196 0.07981698 0.124352 0.04406067 0.17229815 -0.048931148 -0.1886553
-0.14835463 0.09198651 -0.061692238 0.107291564 -0.213445 -0.11127257 -0.076184206 0.020260703
-0.014030002 0.066924624 0.00814906 -0.044060513 0.0502255 0.11559467 -0.014073018 -0.13903396
0.14740829 0.068465196 0.1259961 0.011374206 -0.03685159 -0.17154819 -0.108674936 -0.13984655

res_unit1.norm1.weight f4 [32]
00000000: ed6f 863f eaf0 7c3f c6d0 7b3f 8aef 7a3f
00000010: bcfa 873f 779a 843f f59b 883f a9b9 693f
00000020: e62e 803f 2213 843f 6a6c 843f 7e18 803f
00000030: 3903 833f 8df9 7e3f 9b5d 863f 25fe 793f
00000040: 888a 7d3f 31d5 853f bf7f 833f 4785 803f
00000050: 4205 883f e67f 803f 5969 733f b77a 843f
00000060: 261a 823f 4fcc 803f c2e2 853f 8aab 793f
00000070: c7ce 7d3f 3ccd 803f d607 7b3f 0e71 753f
1.0502907 0.98805106 0.9836544 0.9802176 1.0623393 1.0359639 1.0672594 0.9129892
1.0014312 1.0318339 1.0345585 1.0007474 1.0235358 0.99599534 1.0497316 0.9765342
0.99039507 1.0455686 1.027336 1.0040673 1.0626605 1.0039032 0.9508262 1.034995
1.016423 1.006235 1.0459826 0.9752737 0.9914364 1.0062633 0.9805883 0.9587563

res_unit1.norm1.bias f4 [32]
00000000: 72d1 88bd d646 7d3c 2f24 8bbc c665 68bb
00000010: fa5f 8c3c e310 b23c 245d eebb 0ada e53d
00000020: d96e 9dbc 931a d5bc ebda 073d 7b18 b53b
00000030: 59ea 4b3a c400 aa3c 9110 94bc c373 d6bc
00000040: f9c5 4c3d 369f 06bd d4c7 5c3d 5c03 2cbc
00000050: c733 aabc e5d3 9fbc de85 70bc 5d56 283d
00000060: 8b88 7a3c bb8c 7c3c 0bd2 573d 657f 1c3c
00000070: 5896 223d a24a e3bb b747 263c bdeb 3a3d
-0.066805735 0.015458783 -0.016985027 -0.0035461052 0.017135609 0.021736568 -0.007274287 0.11223228
-0.019217895 -0.026013648 0.03316776 0.0055266 0.0007778756 0.020752318 -0.018074306 -0.026178246
0.04999349 -0.03286668 0.05390151 -0.010498848 -0.020776642 -0.019510219 -0.014680354 0.041097987
0.015291343 0.015414412 0.052690547 0.009551858 0.03969416 -0.006936387 0.010148934 0.045634974

res_unit1.norm1.running_mean f4 [32]
00000000: 4a70 a3be 952a 5dbe 41b3 44bc 7500 1a3e
00000010: 08b7 cabd cbcc bf3c b2ea e0bd 207e 28bd
00000020: 2f9a 183e 9154 94bc 5fe0 1bbc d3c7 a5be
00000030: c812 92bc a43d cd3c 19af a73d bb02 2e3e
00000040: 4711 22be fbfb 373e 5685 49be 3de3 943d
00000050: 7469 40be c5d3 cd3d c2c0 d93d 6e45 6cbe
00000060: 0460 86bc 0d5b 4e3e be21 21bd f001 82be
00000070: 99c9 a33c 5361 403e 7de9 b4bd 306d 59be
-0.31921607 -0.21598275 -0.012005628 0.15039237 -0.09898192 0.023413083 -0.109822646 -0.041135907
0.14902566 -0.01810673 -0.009513943 -0.32379016 -0.017831221 0.025053807 0.08187694 0.16993229
-0.15826903 0.17967217 -0.1967977 0.07269905 -0.18790227 0.100501575 0.10632469 -0.2307336
-0.016403206 0.2015192 -0.03933882 -0.25392103 0.01999359 0.18787126 -0.08833597 -0.21233058

res_unit1.norm1.running_var f4 [32]
00000000: 1d50 833e 760c 413e 674d dc3d b4c4 8f3e
00000010: 5709 263e ead8 263e 87c4 a63d 3737 593e
00000020: 07fb 3f3e 8ecf 363e eae1 583e 54f4 a43e
00000030: 5738 913e caa8 d23d c723 913d 047f 6f3e
00000040: 898c 233e 037f 9a3e 3849 1a3e ffe3 823d
00000050: f182 803e 0823 a33d 4c91 503e b073 8a3e
00000060: 2a49 503e f2e2 7e3e 003a f53d 53dc a13e
00000070: 1b1e 2b3e 65ef 1c3e 956c bc3d 328d 733e
0.2564706 0.1885241 0.10756951 0.2807976 0.162145 0.16293684 0.08142953 0.21212469
0.18748103 0.17852613 0.2117993 0.32217658 0.28363296 0.102861 0.07086902 0.23388296
0.15971579 0.30175027 0.15066993 0.06391143 0.250999 0.07965666 0.20367926 0.27041388
0.2034041 0.2489126 0.11973953 0.31613407 0.16710703 0.15325697 0.09200398 0.2378433

res_unit1.depthwise_conv.weight f4 [32, 1, 5]
00000000: 03bb bbbd 5409 c7bd ad2b 25be 3eee 443d
00000010: 9b40 b5be b48b 6b3b 2a41 4c3e 3321 4abe
00000020: 59a7 a43e d247 633e f287 cebc f368 be3e
00000030: afa4 653e aa33 b4be c3e6 e93d 2956 7f3e
00000040: 5387 adbe 368f de3e e0af 45bc 524d e7bd
00000050: 26da 88be 983a 39be e68d 1b3e 4f1e c23e
00000060: 2bb8 6dbe 63fc 093e f0bb 23be bf57 ce3e
00000070: 61b1 fbbc 0901 c5bd d6e6 50bd decf b5be
00000080: d0c9 4b3e 7a02 2e3c f199 1ebe 112a ed3d
00000090: 3429 cabe e75b 093e 0c46 d2bd 0b43 d1be
000000a0: 0065 073d 4420 25be 3d72 83be ba53 ecbd
000000b0: 6349 823d e14d 1dbe f265 cf3c 6802 1f3e
000000c0: 7898 92be 1016 e2bd 4d71 adbe 47e5 c83e
000000d0: 5ff8 553e 5664 c6be 7dde d1bb 61a2 bc3e
000000e0: 9984 c73e 477b 1bbe ca89 873e 2f8e 0ebe
000000f0: 0b31 66be d350 1e3e 88df a03e 215a 8f3d
00000100: dff2 413e eb9a 94bd a646 13bd a758 fc3b
00000110: 4435 b53e 66d0 12be 180a af3d 4a97 943e
00000120: 2272 c8be 1b6d 40be 003d 003d 6b4d 823e
00000130: 326d e8be c2d3 83be 7b5d d43e 1c72 89be
00000140: a0d1 93be 707c bf3e 8736 de3e 97e6 b2be
00000150: 7561 c9bd c9b2 753e 1d57 5b3e 6639 263e
00000160: 799f 34be df7f 523e 03c3 11bd 8d52 03be
00000170: 6b6b b73e a9cd 973e fd1a acbe b782 5bbe
00000180: 0815 43be 9a98 9fbc 06d0 75bd d838 203e
00000190: 0f62 dc3e a2c2 9b3e 2e66 203e 833c 04bc
000001a0: fc3d 97be d4c8 fa3d 25c7 963d 733b 803e
000001b0: 29ed 523e fe7a ecbd 4b76 7ebe 1f96 293d
000001c0: f148 dabe d2a4 883e a002 b03e e523 973d
000001d0: 6212 5bbd 4f59 12be f3e1 95be feb4 d7be
000001e0: 6c34 4ebc dcb3 debd 01c8 a5be e285 0bbd
000001f0: b368 2bbe 0c3d c4be cb37 463e c7e8 0bba
00000200: c6dd c5be 752f d93e 0f55 a73e 4c4b c63e
00000210: b21b 6a3e ca79 733e afd0 01be c746 8bbe
00000220: bd61 373e 19da 533d 8918 9b3e b5d9 24be
00000230: bed1 403e 1f73 b4bd d152 403e 540f 16be
00000240: bfe5 2abe cc4a ce3e 1263 cabd dc01 a13e
00000250: 8169 dc3e 010e 8dbe c426 b63d 3b4c abbe
00000260: 6b6f 953e 9bff f3be 7bdf ac3e 1d1a d6be
00000270: c3d0 b4be 69be 0b3e 610a 983e 616e a53d
-0.09166529 -0.09718576 -0.16129942 0.048078768 -0.35400853 0.0035941424 0.19946733 -0.19739227
0.32158926 0.22195366 -0.025211308 0.37189445 0.22426103 -0.35195667 0.114209674 0.24935211
-0.33892307 0.43468636 -0.012065858 -0.112940446 -0.26728934 -0.18088758 0.15190849 0.3791375
-0.23214786 0.13475184 -0.15989661 0.4030132 -0.03072423 -0.09619338 -0.051001392 -0.35510153
0.19901204 0.010620708 -0.15488411 0.11580289 -0.3948456 0.13413964 -0.10267267 -0.40871462
0.033055305 -0.1612559 -0.25673094 -0.11539407 0.06361654 -0.1536174 0.025317166 0.15528262
-0.2863195 -0.11039364 -0.33875504 0.39237425 0.20895527 -0.38748425 -0.0064046965 0.36842635
0.3896835 -0.15183745 0.26472312 -0.13921426 -0.22479646 0.1546052 0.3142054 0.069996126
0.18940304 -0.07256111 -0.035956047 0.007700998 0.353922 -0.1433731 0.08546847 0.29021674
-0.39149576 -0.1879162 0.031308174 0.2544969 -0.4539581 -0.25747496 0.4147757 -0.2684487
-0.2887087 0.37399626 0.43400976 -0.3494155 -0.098330416 0.23993982 0.2141995 0.16232833
-0.17638959 0.20556591 -0.03558637 -0.1282446 0.3582414 0.29649094 -0.3361434 -0.21436583
-0.19050992 -0.019481946 -0.06001284 0.15646684 0.43043563 0.3042193 0.15663978 -0.008071068
-0.29539478 0.12245336 0.073622026 0.25045356 0.20598282 -0.115468964 -0.24849813 0.041402932
-0.42633775 0.26688248 0.34377003 0.07379893 -0.053484328 -0.14291881 -0.29273948 -0.42130274
-0.012585741 -0.10874149 -0.32379153 -0.034063227 -0.16739158 -0.38327825 0.19357221 -0.0005337116
-0.38645762 0.4241902 0.32682082 0.38729322 0.22862127 0.23776928 -0.12677263 -0.27202436
0.17908378 0.051721666 0.30292156 -0.16098674 0.1883001 -0.0881102 0.18781592 -0.14654285
-0.16689204 0.4029144 -0.098821774 0.3144673 0.43049243 -0.27549747 0.08894113 -0.33456597
0.29186568 -0.4765595 0.33764252 -0.41816798 -0.35315523 0.13646854 0.29695418 0.08077694

res_unit1.norm2.weight f4 [32]
00000000: 5d47 803f 4650 813f 165e 7a3f 4860 743f
00000010: 30d9 7f3f 48ea 7f3f 9b6b 823f 7d2b 843f
00000020: 37be 7b3f 08fd 7e3f 993d 843f a2b7 823f
00000030: 59c1 7f3f b0a1 763f 1aea 7c3f 4c9d 753f
00000040: 1414 863f 02d6 7e3f ac2b 863f db22 763f
00000050: 8dba 823f d74d 7e3f c377 813f 4a85 8b3f
00000060: 7896 7f3f b66a 803f e4f4 773f 61c1 7a3f
00000070: fd98 803f cafa 7d3f 68f8 7f3f a730 823f
1.0021778 1.0102623 0.97799814 0.95459414 0.99940777 0.9996686 1.0189089 1.0325772
0.9833712 0.99604845 1.0331298 1.021229 0.999044 0.96340466 0.9879471 0.9594314
1.0474877 0.995453 1.0482078 0.96146935 1.0213181 0.99337524 1.0114673 1.0900052
0.9983897 1.0032566 0.9685805 0.9795132 1.0046688 0.992108 0.9998841 1.0171098

res_unit1.norm2.bias f4 [32]
00000000: c24b 69bd b7b1 0e3d eeb2 69bd 79b8 32bd
00000010: 5e00 d9bb 1e19 383c 3295 823c ab28 a93c
00000020: 65c0 babc 07ab 203c ee02 c33c 5f60 043c
00000030: c2b8 313d 2edc 623b 534c 553b 68a3 b6bd
00000040: 1283 48bb 2526 2d3c 504d 0c3c 37ce 6cbd
00000050: c5ae 3ebc 8488 f4bc 7caf 2e3b 3e6b 273e
00000060: 7567 123c f338 453d 5478 b1bb 6eee 29ba
00000070: 709b d23c 569a c93c 2c8e 1abd 4b69 023d
-0.056957014 0.03483745 -0.057055406 -0.043632958 -0.006622358 0.011236457 0.015940282 0.020649275
-0.022796819 0.009806401 0.023805108 0.008079617 0.04338909 0.00346161 0.0032546713 -0.08917886
-0.0030595702 0.010568176 0.008563355 -0.05781385 -0.011638348 -0.029850252 0.002665489 0.16349503
0.008935799 0.048150014 -0.0054159556 -0.0006482367 0.025708884 0.024609726 -0.037733242 0.031838696

res_unit1.norm2.running_mean f4 [32]
00000000: 12ce e6bd 9969 dc3d 3511 823d dfb8 2a3d
00000010: 0890 09bd 8ed3 763d 1055 9abd d38f 21be
00000020: 18cc b4bd 5889 a0bd fa11 03bd ce51 143e
00000030: eb3b e73d 26ac ac3c 6ea9 0dbd a7e8 5fbd
00000040: 4e29 8e3c 75a7 093e e0a2 1a3d ecc1 83bd
00000050: 7c55 fd3d d009 d63d 9134 61bb f997 3ebe
00000060: c5a9 12be 9f34 09bd bb71 843e b29a a63c
00000070: be3d d8bb 5a76 133e 0ede 93bc 84fa 64bd
-0.112697735 0.10762329 0.06350938 0.041680213 -0.033584625 0.060260348 -0.07535756 -0.15777521
-0.0882799 -0.07838696 -0.031999566 0.14484331 0.11290725 0.02107818 -0.03458541 -0.054665234
0.01735368 0.13442786 0.037752986 -0.06433472 0.123698205 0.1045109 -0.0034363607 -0.1861266
-0.14322574 -0.03349745 0.2586802 0.020337436 -0.006599157 0.14400616 -0.01805022 -0.055902973

res_unit1.norm2.running_var f4 [32]
00000000: eec3 933c e6bf a73c 34e9 063e c942 553e
00000010: f63e 133e 8df8 ab3d b027 1d3d db56 9c3d
00000020: cf54 8a3d b52e 753d e52e 7c3e 52c2 2f3d
00000030: cf40 b43d 4f2c a93d 0b81 103e 3874 313e
00000040: eed1 a23d 51ab 213e bb48 693d ecb4 873d
00000050: 854f b53d caf9 ee3d 7740 3f3e 6345 413d
00000060: cfd4 4e3d 43f0 4e3e d453 223e 3255 233d
00000070: 580b 413d bfa1 c83e ee8f 1e3e 463e 463d
0.018037762 0.020477246 0.13174897 0.20826258 0.14379486 0.08397017 0.038367927 0.07633754
0.06754457 0.059858996 0.24627264 0.042909928 0.08801424 0.08260404 0.14111726 0.1732949
0.07950197 0.15788008 0.056954127 0.06626305 0.08853058 0.11668737 0.18676935 0.047185313
0.05049592 0.2020884 0.1585229 0.03987617 0.04712996 0.39185902 0.15484592 0.048399232

res_unit1.pointwise2.weight f4 [32, 32, 1]
00000000: fd43 2e3e 762a 443e e52f 9e3b f163 67bc
00000010: 3c75 76bd 5e18 463c bcb0 dc3d 2126 ecbc
00000020: 18d4 02be 25a2 74bd 3099 883d cd41 37bb
00000030: 978a 02be a219 0bbe 0138 b8bd e472 e43d
00000040: f5d4 bdbd 833d 843b 5549 323e 52ec ff3d
00000050: a109 17be f2e3 333d 56fe 0d3e 252e 033e
00000060: c5c3 38be 9048 163d 23f6 913d f68c da3c
00000070: 666f f73d 02d9 28ba 403a 16be 08d7 81be
00000080: 0a08 d6bb 0624 febd f3a8 863c e253 9bbd
00000090: 49a5 373d 163c a6bd 6456 15be 69f6 d8bc
000000a0: ce40 493e 99d3 f63d 4f9d 16bd 5590 ad3c
000000b0: d82d 8739 fdfa a4bc 5ba0 233e 3e21 f7bc
000000c0: c048 093d dd7d 02be f5cb 3cbe c24c 1d3e
000000d0: 9b83 9abd 3cdd e7bd 428a 3fbe 43fc 8ebd
000000e0: 8c3c 153e 1d8a 46be 0f9c a3bc 8b26 2dbe
000000f0: e323 20be 060a 393d 4ca3 4bbd a732 4a3e
00000100: f607 39be 319b c3bd 8d58 6bbc 589a 91bd
00000110: e2ec 243b e7eb 28bc f95c 99bd 056e 0c3e
00000120: 6a5f 51bd f226 3dbe 67dd 02be a557 e8bc
00000130: 58d2 0dbc 72f8 bcbd 8e44 f83c 4a88 163e
00000140: ffec b5b9 c6d3 ae3d 8468 52be 0ea3 8b3d
00000150: ddec 18be ef97 383d d335 c73d 4db8 3f3e
00000160: 85e2 f63d e79a 9abc f1a7 12be 2634 47bd
00000170: be20 87bd 22eb 18bd 13c5 d5bd 5996 5a3e
00000180: 354b 453e ad7c 63bd afa9 2b3d bd39 95bc
00000190: c690 063e fabf 92bd 3267 d8bd 07bc 29be
000001a0: 97a4 8b3d 8a90 12be 9170 9b3d 7207 c3bd
000001b0: 50c4 ab3d 1151 cb3d cd43 14be 2762 98bc
000001c0: 0337 183e a4db 8e3d f3df 9dbd 5f86 343d
000001d0: 6a3d 0abe 6e77 513d c3ce 19be e69d 403e
000001e0: 92bc 463c 8486 213e 00ff dcbd 33be 13be
000001f0: f26f 283d f2af f23d 6d6d 88bd c401 14be
00000200: eb21 4ebc ae0f 113e b4be 523e 9810 4d3d
00000210: 4d9a f63d 9cbc 15be 90b2 b8bd 3af2 0abe
00000220: 8eeb 583d 4131 c33d 3c3a e5bd 2211 50bd
00000230: 791f 103e 8836 a53d fcc9 ac3c 2299 35be
00000240: bb0b 783d c417 173e 02b1 083c 48a5 febd
00000250: 548f 58bd 3d77 873d 7e73 28be 7c54 673d
00000260: 6042 87bd 4e0b a2bc 25f1 083e 8d83 93bb
00000270: 2e75 153e 2892 7ebd 6980 1d3e 848e 2b3d
00000280: 66b0 d23d 8d87 293e f49f 003c 7f32 0ebe
00000290: ae8b aebd 5861 89bd a618 213b 941f 58bb
000002a0: ec9c 0abe f159 a23d bf05 acbd c0fa fcbd
000002b0: 35f6 023e ad46 95bc fa7c 8ebd 07ab 85bd
000002c0: c9ac 9ebd d5a2 bcbd 7ad0 ea3d f69d 3bbe
000002d0: 0bc0 2abe f140 0ebd 6bbc 32be 4271 05be
000002e0: 94a0 c33c 07b9 e23d 0bf3 1ebd 2088 12be
000002f0: 41a2 d73c 91ff 7f3d 18be 2d3e 8de4 4eba
00000300: 0daf 423e 2fc8 2cbb b952 233e d751 193e
00000310: 7823 fbbd 4555 db3d b9a6 653e 11a8 abbd
00000320: 2038 323d 00c8 113e e612 37bc 99a0 3f3e
00000330: c288 5e3d a7f7 12be 5b8a b7bd 11cf 173d
00000340: 0057 143d 720b 523d 9130 e13d a0e5 0b3e
00000350: 11b2 8cbd 4fc7 413d 79fb 023e 3fc9 ed3d
00000360: 92ce 173e d579 183d c081 12be d070 f7bd
00000370: 7187 173e 99ed a53d c78a afbc 9f3d 15be
00000380: 73ac ffbd c17d 433e 57df 083e d39b f7bd
00000390: 8252 96bd 3562 fabd dd81 92bd 6e07 acbd
000003a0: e19f 8c3d c17b d73d e3fc 8a3d 3902 1c3d
000003b0: 60d5 93bd 461c e6bd c8d3 d93d 0d06 09be
000003c0: 04a1 cebd 8c6f 04be 5616 003e de81 01be
000003d0: 2ca7 5c3e bb05 1b3e 5999 8f3d 4a1d 52be
000003e0: 08f8 eb3d b42f ab3d 2b44 e53d 6835 bb3c
000003f0: a863 513e 3caa 75bd 9502 92bd 8823 35bd
0.17018123 0.19156823 0.004827487 -0.014122949 -0.060170397 0.0120907705 0.10775897 -0.028826775
-0.1277622 -0.059724946 0.06669843 -0.0027962804 -0.1274818 -0.13583997 -0.08995057 0.11154726
-0.09269134 0.004035653 0.17410786 0.124962464 -0.14749767 0.043918557 0.13866553 0.12810571
-0.1804343 0.036690295 0.07127025 0.026678544 0.120817944 -0.0006441028 -0.14670658 -0.25359368
-0.00653172 -0.12409215 0.016437983 -0.07584359 0.044835363 -0.08116929 -0.14583737 -0.026484685
0.19653627 0.12052078 -0.036771115 0.021186987 0.00025783363 -0.020139212 0.1597914 -0.030167218
0.033516645 -0.12743326 -0.18437178 0.15361312 -0.07544633 -0.11321494 -0.18705085 -0.06981709
0.14573878 -0.19388624 -0.019971875 -0.16909234 -0.1563869 0.045175575 -0.04971628 0.19745885
-0.18069443 -0.09551085 -0.014364374 -0.07109517 0.0025165607 -0.01031015 -0.07488436 0.13713844
-0.051116385 -0.18471888 -0.12779771 -0.028362105 -0.008656107 -0.09227075 0.030306127 0.14700428
-0.00034699586 0.08536486 -0.20547682 0.068182096 -0.14934106 0.04506677 0.09727063 0.18722649
0.12054924 -0.018872691 -0.14321877 -0.048633717 -0.06598042 -0.037333615 -0.104379795 0.21346416
0.1926697 -0.055538822 0.04190987 -0.018216008 0.13141164 -0.07165523 -0.10566558 -0.16575633
0.068185024 -0.1431295 0.0758983 -0.095229045 0.08387053 0.099275716 -0.14478989 -0.01860149
0.14864735 0.06975487 -0.077087305 0.04407346 -0.1349999 0.051139288 -0.1502028 0.18810233
0.01212992 0.1577397 -0.10790825 -0.14428024 0.041122384 0.11849965 -0.06661496 -0.14453799
-0.012581329 0.14166138 0.2058056 0.050064653 0.12041149 -0.1462273 -0.09018433 -0.13568965
0.052959017 0.09530879 -0.11192748 -0.05079759 0.14074506 0.08067042 0.021092407 -0.17734197
0.060558062 0.1475516 0.008342983 -0.12433869 -0.052871063 0.0661454 -0.16450307 0.056477055
-0.06604457 -0.019780781 0.1337324 -0.004501766 0.14595482 -0.062151104 0.15381016 0.04188396
0.102875516 0.16555615 0.007850636 -0.1388645 -0.085227355 -0.0670802 0.0024581342 -0.0032977806
-0.13536423 0.07927311 -0.083995335 -0.12352514 0.12789233 -0.018222177 -0.06957431 -0.065267615
-0.077478 -0.09210745 0.11465545 -0.18321976 -0.16674821 -0.0347299 -0.17454688 -0.13031486
0.02388028 0.110704474 -0.038806003 -0.1430974 0.026322486 0.062499586 0.16967046 -0.0007892333
0.19012089 -0.0026364436 0.15949525 0.14972626 -0.122626245 0.10709623 0.22426881 -0.083816655
0.043510556 0.1423645 -0.011173939 0.18713607 0.05432964 -0.14352284 -0.08961936 0.03706271
0.036215782 0.051280446 0.109955914 0.13661814 -0.06869901 0.047309216 0.12791242 0.1161065
0.14824894 0.037225563 -0.14307308 -0.12082064 0.1479776 0.08101959 -0.021428479 -0.14574288
-0.12484064 0.1909094 0.13366447 -0.12090268 -0.07339956 -0.12225763 -0.07153676 -0.083998546
0.06866432 0.10521651 0.067865156 0.038088057 -0.072184324 -0.112358615 0.10636097 -0.13381214
-0.10089305 -0.12933177 0.1250852 -0.12647197 0.21548146 0.15138905 0.070116706 -0.20518985
0.115219176 0.08358708 0.11194643 0.022852615 0.20448172 -0.0599768 -0.07129399 -0.04422334

res_unit1.norm3.weight f4 [32]
00000000: 208c 843f 470e 833f 6291 853f 4466 803f
00000010: 1736 843f 1b80 803f 0c8a 853f c229 813f
00000020: 4b6a 803f ddd2 7c3f 5d79 7f3f 7706 7d3f
00000030: 2f71 733f 56ac 843f b2a9 803f 734a 813f
00000040: b615 863f fc0a 833f 00fd 793f 0e57 823f
00000050: f7b3 823f 118a 783f 7d4a 833f 6447 773f
00000060: 42ab 7d3f 0327 7e3f 7d95 763f 94f6 803f
00000070: 1198 7a3f b176 803f afc0 7c3f 5953 833f
1.0355263 1.0238732 1.0434992 1.0031209 1.0329007 1.0039095 1.0432754 1.0090868
1.0032438 0.9875925 0.9979456 0.9883799 0.9509458 1.0365093 1.0051787 1.0100845
1.0475376 1.0237727 0.9765167 1.0182817 1.0211171 0.9708567 1.0257107 0.9659331
0.99089444 0.9927828 0.9632185 1.007525 0.97888285 1.0036222 0.9873151 1.0259811

res_unit1.norm3.bias f4 [32]
00000000: 8ddc 0d3d f659 363d 4921 323d a419 11bd
00000010: 90d6 e6bc 5c7c 48bc 3bc0 803d 2e08 c0bc
00000020: 27aa 2abd f4df 04bd 50ee 573d 6731 253d
00000030: cd00 6abd 4267 c83c af38 813d 9104 22bb
00000040: ed6d 02bd eef2 ae3d 305c 6fbd f662 ad3c
00000050: 93e2 01bd 5a26 773d f33f 3b3d c2c0 b03b
00000060: fedb 1a3c efde 97bc ddf4 0cbd 8d45 0f3d
00000070: b0f5 29bc 8cd8 c9bc cef6 423d 0669 263c
0.03463416 0.044519387 0.043488774 -0.035424843 -0.028178483 -0.012236681 0.06286665 -0.0234414
-0.041666176 -0.03244014 0.052717507 0.040330317 -0.05712967 0.0244633 0.0630964 -0.002472196
-0.031843115 0.08542429 -0.058437526 0.021165352 -0.03171022 0.06033931 0.045715284 0.0053940723
0.009451864 -0.01853892 -0.034413207 0.03497844 -0.010373518 -0.02463939 0.047598653 0.0101568755

res_unit1.norm3.running_mean f4 [32]
00000000: 2e0a 773d 0457 4cbe 6094 efbd c2aa 3dbc
00000010: 3048 003e 68b1 1dbe 7f0a a13e acd9 1a3b
00000020: a54f 073e 558e efbd 51d5 babc 78d6 92be
00000030: 0802 2bbd c681 d43c 807d 60be a7cd bb3d
00000040: 6f36 8abd 470b bcbb 8767 41be c527 a1be
00000050: ee44 2bbd 8799 df3d 8bfd fabd 6aea e5bd
00000060: 110c d7bd 420d cf3d f309 67be ef19 4d3d
00000070: 180e 623b 0c32 7d3d 2cf5 81bc 0778 14be
0.060312442 -0.19955069 -0.11698222 -0.011576356 0.12527537 -0.15399706 0.3145332 0.0023628278
0.13213976 -0.116970696 -0.022806795 -0.28679252 -0.041749984 0.025940787 -0.21922874 0.091700844
-0.06748664 -0.005738649 -0.18887149 -0.31475654 -0.041813783 0.10917955 -0.12255391 -0.112263516
-0.10500348 0.101099506 -0.22562389 0.05007356 0.0034493264 0.061815307 -0.015863977 -0.14498912

res_unit1.norm3.running_var f4 [32]
00000000: 7d54 203e 7642 613e 08d8 1e3e ea6f 043e
00000010: d7c6 673e 5ed3 163e 414a 7b3e addb 2a3e
00000020: 9887 153e bd42 333e 4a16 193e d6c3 243e
00000030: d74c d83d 3dde 753e f9ee 063e ce8c e23d
00000040: ae2e 063e b367 263e 3034 b23d cce6 9f3e
00000050: 6dbb 9c3d 559d 273e 80ff 1f3e e585 b63e
00000060: e4a0 1f3e 402f ec3d a356 d03e 310f 583e
00000070: e627 473e 21a9 1d3e 3166 393e 510a f63d
0.1565723 0.21998009 0.15512097 0.12933317 0.22634445 0.14729068 0.24540044 0.16685362
0.14602506 0.17505927 0.14949909 0.1609033 0.10561531 0.24010558 0.13177098 0.110620126
0.13103744 0.16250496 0.0870136 0.31230772 0.07652936 0.16368611 0.1562481 0.35649028
0.15588719 0.1153245 0.406911 0.21099545 0.19448814 0.15396549 0.18105389 0.120136864
